program(1.0)
[buildInfo = dict<tensor<string, []>, tensor<string, []>>({{"coremlc-component-MIL", "3401.3.1"}, {"coremlc-version", "3401.4.1"}, {"coremltools-component-torch", "2.9.1"}, {"coremltools-source-dialect", "TorchScript"}, {"coremltools-version", "9.0"}})]
{
    func main<ios15>(tensor<fp32, [1, 3, 640, 640]> image) {
            tensor<fp32, []> image__scaled___y_0 = const()[name = tensor<string, []>("image__scaled___y_0"), val = tensor<fp32, []>(0x1.010102p-8)];
            tensor<fp32, [1, 3, 640, 640]> image__scaled__ = mul(x = image, y = image__scaled___y_0)[name = tensor<string, []>("image__scaled__")];
            tensor<int32, []> var_10 = const()[name = tensor<string, []>("op_10"), val = tensor<int32, []>(-1)];
            tensor<int32, []> var_21 = const()[name = tensor<string, []>("op_21"), val = tensor<int32, []>(1)];
            tensor<int32, []> var_22 = const()[name = tensor<string, []>("op_22"), val = tensor<int32, []>(2)];
            tensor<string, []> input_1_pad_type_0 = const()[name = tensor<string, []>("input_1_pad_type_0"), val = tensor<string, []>("custom")];
            tensor<int32, [4]> input_1_pad_0 = const()[name = tensor<string, []>("input_1_pad_0"), val = tensor<int32, [4]>([1, 1, 1, 1])];
            tensor<int32, [2]> input_1_strides_0 = const()[name = tensor<string, []>("input_1_strides_0"), val = tensor<int32, [2]>([2, 2])];
            tensor<int32, [2]> input_1_dilations_0 = const()[name = tensor<string, []>("input_1_dilations_0"), val = tensor<int32, [2]>([1, 1])];
            tensor<int32, []> input_1_groups_0 = const()[name = tensor<string, []>("input_1_groups_0"), val = tensor<int32, []>(1)];
            tensor<string, []> image_to_fp16_dtype_0 = const()[name = tensor<string, []>("image_to_fp16_dtype_0"), val = tensor<string, []>("fp16")];
            tensor<fp16, [16, 3, 3, 3]> model_model_0_conv_weight_to_fp16 = const()[name = tensor<string, []>("model_model_0_conv_weight_to_fp16"), val = tensor<fp16, [16, 3, 3, 3]>(BLOBFILE(path = tensor<string, []>("@model_path/weights/weight.bin"), offset = tensor<uint64, []>(64)))];
            tensor<fp16, [16]> model_model_0_conv_bias_to_fp16 = const()[name = tensor<string, []>("model_model_0_conv_bias_to_fp16"), val = tensor<fp16, [16]>(BLOBFILE(path = tensor<string, []>("@model_path/weights/weight.bin"), offset = tensor<uint64, []>(1024)))];
            tensor<fp16, [1, 3, 640, 640]> image_to_fp16 = cast(dtype = image_to_fp16_dtype_0, x = image__scaled__)[name = tensor<string, []>("cast_12")];
            tensor<fp16, [1, 16, 320, 320]> input_1_cast_fp16 = conv(bias = model_model_0_conv_bias_to_fp16, dilations = input_1_dilations_0, groups = input_1_groups_0, pad = input_1_pad_0, pad_type = input_1_pad_type_0, strides = input_1_strides_0, weight = model_model_0_conv_weight_to_fp16, x = image_to_fp16)[name = tensor<string, []>("input_1_cast_fp16")];
            tensor<fp16, [1, 16, 320, 320]> input_3_cast_fp16 = silu(x = input_1_cast_fp16)[name = tensor<string, []>("input_3_cast_fp16")];
            tensor<string, []> input_5_pad_type_0 = const()[name = tensor<string, []>("input_5_pad_type_0"), val = tensor<string, []>("custom")];
            tensor<int32, [4]> input_5_pad_0 = const()[name = tensor<string, []>("input_5_pad_0"), val = tensor<int32, [4]>([1, 1, 1, 1])];
            tensor<int32, [2]> input_5_strides_0 = const()[name = tensor<string, []>("input_5_strides_0"), val = tensor<int32, [2]>([2, 2])];
            tensor<int32, [2]> input_5_dilations_0 = const()[name = tensor<string, []>("input_5_dilations_0"), val = tensor<int32, [2]>([1, 1])];
            tensor<int32, []> input_5_groups_0 = const()[name = tensor<string, []>("input_5_groups_0"), val = tensor<int32, []>(1)];
            tensor<fp16, [32, 16, 3, 3]> model_model_1_conv_weight_to_fp16 = const()[name = tensor<string, []>("model_model_1_conv_weight_to_fp16"), val = tensor<fp16, [32, 16, 3, 3]>(BLOBFILE(path = tensor<string, []>("@model_path/weights/weight.bin"), offset = tensor<uint64, []>(1152)))];
            tensor<fp16, [32]> model_model_1_conv_bias_to_fp16 = const()[name = tensor<string, []>("model_model_1_conv_bias_to_fp16"), val = tensor<fp16, [32]>(BLOBFILE(path = tensor<string, []>("@model_path/weights/weight.bin"), offset = tensor<uint64, []>(10432)))];
            tensor<fp16, [1, 32, 160, 160]> input_5_cast_fp16 = conv(bias = model_model_1_conv_bias_to_fp16, dilations = input_5_dilations_0, groups = input_5_groups_0, pad = input_5_pad_0, pad_type = input_5_pad_type_0, strides = input_5_strides_0, weight = model_model_1_conv_weight_to_fp16, x = input_3_cast_fp16)[name = tensor<string, []>("input_5_cast_fp16")];
            tensor<fp16, [1, 32, 160, 160]> input_7_cast_fp16 = silu(x = input_5_cast_fp16)[name = tensor<string, []>("input_7_cast_fp16")];
            tensor<string, []> input_9_pad_type_0 = const()[name = tensor<string, []>("input_9_pad_type_0"), val = tensor<string, []>("valid")];
            tensor<int32, [2]> input_9_strides_0 = const()[name = tensor<string, []>("input_9_strides_0"), val = tensor<int32, [2]>([1, 1])];
            tensor<int32, [4]> input_9_pad_0 = const()[name = tensor<string, []>("input_9_pad_0"), val = tensor<int32, [4]>([0, 0, 0, 0])];
            tensor<int32, [2]> input_9_dilations_0 = const()[name = tensor<string, []>("input_9_dilations_0"), val = tensor<int32, [2]>([1, 1])];
            tensor<int32, []> input_9_groups_0 = const()[name = tensor<string, []>("input_9_groups_0"), val = tensor<int32, []>(1)];
            tensor<fp16, [32, 32, 1, 1]> model_model_2_cv1_conv_weight_to_fp16 = const()[name = tensor<string, []>("model_model_2_cv1_conv_weight_to_fp16"), val = tensor<fp16, [32, 32, 1, 1]>(BLOBFILE(path = tensor<string, []>("@model_path/weights/weight.bin"), offset = tensor<uint64, []>(10560)))];
            tensor<fp16, [32]> model_model_2_cv1_conv_bias_to_fp16 = const()[name = tensor<string, []>("model_model_2_cv1_conv_bias_to_fp16"), val = tensor<fp16, [32]>(BLOBFILE(path = tensor<string, []>("@model_path/weights/weight.bin"), offset = tensor<uint64, []>(12672)))];
            tensor<fp16, [1, 32, 160, 160]> input_9_cast_fp16 = conv(bias = model_model_2_cv1_conv_bias_to_fp16, dilations = input_9_dilations_0, groups = input_9_groups_0, pad = input_9_pad_0, pad_type = input_9_pad_type_0, strides = input_9_strides_0, weight = model_model_2_cv1_conv_weight_to_fp16, x = input_7_cast_fp16)[name = tensor<string, []>("input_9_cast_fp16")];
            tensor<fp16, [1, 32, 160, 160]> var_89_cast_fp16 = silu(x = input_9_cast_fp16)[name = tensor<string, []>("op_89_cast_fp16")];
            tensor<int32, [2]> var_90 = const()[name = tensor<string, []>("op_90"), val = tensor<int32, [2]>([16, 16])];
            tensor<int32, []> var_91_axis_0 = const()[name = tensor<string, []>("op_91_axis_0"), val = tensor<int32, []>(1)];
            tensor<fp16, [1, 16, 160, 160]> var_91_cast_fp16_0, tensor<fp16, [1, 16, 160, 160]> var_91_cast_fp16_1 = split(axis = var_91_axis_0, split_sizes = var_90, x = var_89_cast_fp16)[name = tensor<string, []>("op_91_cast_fp16")];
            tensor<string, []> input_13_pad_type_0 = const()[name = tensor<string, []>("input_13_pad_type_0"), val = tensor<string, []>("custom")];
            tensor<int32, [4]> input_13_pad_0 = const()[name = tensor<string, []>("input_13_pad_0"), val = tensor<int32, [4]>([1, 1, 1, 1])];
            tensor<int32, [2]> input_13_strides_0 = const()[name = tensor<string, []>("input_13_strides_0"), val = tensor<int32, [2]>([1, 1])];
            tensor<int32, [2]> input_13_dilations_0 = const()[name = tensor<string, []>("input_13_dilations_0"), val = tensor<int32, [2]>([1, 1])];
            tensor<int32, []> input_13_groups_0 = const()[name = tensor<string, []>("input_13_groups_0"), val = tensor<int32, []>(1)];
            tensor<fp16, [8, 16, 3, 3]> model_model_2_m_0_cv1_conv_weight_to_fp16 = const()[name = tensor<string, []>("model_model_2_m_0_cv1_conv_weight_to_fp16"), val = tensor<fp16, [8, 16, 3, 3]>(BLOBFILE(path = tensor<string, []>("@model_path/weights/weight.bin"), offset = tensor<uint64, []>(12800)))];
            tensor<fp16, [8]> model_model_2_m_0_cv1_conv_bias_to_fp16 = const()[name = tensor<string, []>("model_model_2_m_0_cv1_conv_bias_to_fp16"), val = tensor<fp16, [8]>([0x1.8e8p-1, 0x1.6bcp+0, 0x1.57p-5, -0x1.8fp-2, 0x1.75p+0, 0x1.414p+0, 0x1.cccp-1, -0x1.2cp-1])];
            tensor<fp16, [1, 8, 160, 160]> input_13_cast_fp16 = conv(bias = model_model_2_m_0_cv1_conv_bias_to_fp16, dilations = input_13_dilations_0, groups = input_13_groups_0, pad = input_13_pad_0, pad_type = input_13_pad_type_0, strides = input_13_strides_0, weight = model_model_2_m_0_cv1_conv_weight_to_fp16, x = var_91_cast_fp16_1)[name = tensor<string, []>("input_13_cast_fp16")];
            tensor<fp16, [1, 8, 160, 160]> input_15_cast_fp16 = silu(x = input_13_cast_fp16)[name = tensor<string, []>("input_15_cast_fp16")];
            tensor<string, []> input_17_pad_type_0 = const()[name = tensor<string, []>("input_17_pad_type_0"), val = tensor<string, []>("custom")];
            tensor<int32, [4]> input_17_pad_0 = const()[name = tensor<string, []>("input_17_pad_0"), val = tensor<int32, [4]>([1, 1, 1, 1])];
            tensor<int32, [2]> input_17_strides_0 = const()[name = tensor<string, []>("input_17_strides_0"), val = tensor<int32, [2]>([1, 1])];
            tensor<int32, [2]> input_17_dilations_0 = const()[name = tensor<string, []>("input_17_dilations_0"), val = tensor<int32, [2]>([1, 1])];
            tensor<int32, []> input_17_groups_0 = const()[name = tensor<string, []>("input_17_groups_0"), val = tensor<int32, []>(1)];
            tensor<fp16, [16, 8, 3, 3]> model_model_2_m_0_cv2_conv_weight_to_fp16 = const()[name = tensor<string, []>("model_model_2_m_0_cv2_conv_weight_to_fp16"), val = tensor<fp16, [16, 8, 3, 3]>(BLOBFILE(path = tensor<string, []>("@model_path/weights/weight.bin"), offset = tensor<uint64, []>(15168)))];
            tensor<fp16, [16]> model_model_2_m_0_cv2_conv_bias_to_fp16 = const()[name = tensor<string, []>("model_model_2_m_0_cv2_conv_bias_to_fp16"), val = tensor<fp16, [16]>(BLOBFILE(path = tensor<string, []>("@model_path/weights/weight.bin"), offset = tensor<uint64, []>(17536)))];
            tensor<fp16, [1, 16, 160, 160]> input_17_cast_fp16 = conv(bias = model_model_2_m_0_cv2_conv_bias_to_fp16, dilations = input_17_dilations_0, groups = input_17_groups_0, pad = input_17_pad_0, pad_type = input_17_pad_type_0, strides = input_17_strides_0, weight = model_model_2_m_0_cv2_conv_weight_to_fp16, x = input_15_cast_fp16)[name = tensor<string, []>("input_17_cast_fp16")];
            tensor<fp16, [1, 16, 160, 160]> var_113_cast_fp16 = silu(x = input_17_cast_fp16)[name = tensor<string, []>("op_113_cast_fp16")];
            tensor<fp16, [1, 16, 160, 160]> var_114_cast_fp16 = add(x = var_91_cast_fp16_1, y = var_113_cast_fp16)[name = tensor<string, []>("op_114_cast_fp16")];
            tensor<bool, []> input_19_interleave_0 = const()[name = tensor<string, []>("input_19_interleave_0"), val = tensor<bool, []>(false)];
            tensor<fp16, [1, 48, 160, 160]> input_19_cast_fp16 = concat(axis = var_21, interleave = input_19_interleave_0, values = (var_91_cast_fp16_0, var_91_cast_fp16_1, var_114_cast_fp16))[name = tensor<string, []>("input_19_cast_fp16")];
            tensor<string, []> input_21_pad_type_0 = const()[name = tensor<string, []>("input_21_pad_type_0"), val = tensor<string, []>("valid")];
            tensor<int32, [2]> input_21_strides_0 = const()[name = tensor<string, []>("input_21_strides_0"), val = tensor<int32, [2]>([1, 1])];
            tensor<int32, [4]> input_21_pad_0 = const()[name = tensor<string, []>("input_21_pad_0"), val = tensor<int32, [4]>([0, 0, 0, 0])];
            tensor<int32, [2]> input_21_dilations_0 = const()[name = tensor<string, []>("input_21_dilations_0"), val = tensor<int32, [2]>([1, 1])];
            tensor<int32, []> input_21_groups_0 = const()[name = tensor<string, []>("input_21_groups_0"), val = tensor<int32, []>(1)];
            tensor<fp16, [64, 48, 1, 1]> model_model_2_cv2_conv_weight_to_fp16 = const()[name = tensor<string, []>("model_model_2_cv2_conv_weight_to_fp16"), val = tensor<fp16, [64, 48, 1, 1]>(BLOBFILE(path = tensor<string, []>("@model_path/weights/weight.bin"), offset = tensor<uint64, []>(17664)))];
            tensor<fp16, [64]> model_model_2_cv2_conv_bias_to_fp16 = const()[name = tensor<string, []>("model_model_2_cv2_conv_bias_to_fp16"), val = tensor<fp16, [64]>(BLOBFILE(path = tensor<string, []>("@model_path/weights/weight.bin"), offset = tensor<uint64, []>(23872)))];
            tensor<fp16, [1, 64, 160, 160]> input_21_cast_fp16 = conv(bias = model_model_2_cv2_conv_bias_to_fp16, dilations = input_21_dilations_0, groups = input_21_groups_0, pad = input_21_pad_0, pad_type = input_21_pad_type_0, strides = input_21_strides_0, weight = model_model_2_cv2_conv_weight_to_fp16, x = input_19_cast_fp16)[name = tensor<string, []>("input_21_cast_fp16")];
            tensor<fp16, [1, 64, 160, 160]> input_23_cast_fp16 = silu(x = input_21_cast_fp16)[name = tensor<string, []>("input_23_cast_fp16")];
            tensor<string, []> input_25_pad_type_0 = const()[name = tensor<string, []>("input_25_pad_type_0"), val = tensor<string, []>("custom")];
            tensor<int32, [4]> input_25_pad_0 = const()[name = tensor<string, []>("input_25_pad_0"), val = tensor<int32, [4]>([1, 1, 1, 1])];
            tensor<int32, [2]> input_25_strides_0 = const()[name = tensor<string, []>("input_25_strides_0"), val = tensor<int32, [2]>([2, 2])];
            tensor<int32, [2]> input_25_dilations_0 = const()[name = tensor<string, []>("input_25_dilations_0"), val = tensor<int32, [2]>([1, 1])];
            tensor<int32, []> input_25_groups_0 = const()[name = tensor<string, []>("input_25_groups_0"), val = tensor<int32, []>(1)];
            tensor<fp16, [64, 64, 3, 3]> model_model_3_conv_weight_to_fp16 = const()[name = tensor<string, []>("model_model_3_conv_weight_to_fp16"), val = tensor<fp16, [64, 64, 3, 3]>(BLOBFILE(path = tensor<string, []>("@model_path/weights/weight.bin"), offset = tensor<uint64, []>(24064)))];
            tensor<fp16, [64]> model_model_3_conv_bias_to_fp16 = const()[name = tensor<string, []>("model_model_3_conv_bias_to_fp16"), val = tensor<fp16, [64]>(BLOBFILE(path = tensor<string, []>("@model_path/weights/weight.bin"), offset = tensor<uint64, []>(97856)))];
            tensor<fp16, [1, 64, 80, 80]> input_25_cast_fp16 = conv(bias = model_model_3_conv_bias_to_fp16, dilations = input_25_dilations_0, groups = input_25_groups_0, pad = input_25_pad_0, pad_type = input_25_pad_type_0, strides = input_25_strides_0, weight = model_model_3_conv_weight_to_fp16, x = input_23_cast_fp16)[name = tensor<string, []>("input_25_cast_fp16")];
            tensor<fp16, [1, 64, 80, 80]> input_27_cast_fp16 = silu(x = input_25_cast_fp16)[name = tensor<string, []>("input_27_cast_fp16")];
            tensor<string, []> input_29_pad_type_0 = const()[name = tensor<string, []>("input_29_pad_type_0"), val = tensor<string, []>("valid")];
            tensor<int32, [2]> input_29_strides_0 = const()[name = tensor<string, []>("input_29_strides_0"), val = tensor<int32, [2]>([1, 1])];
            tensor<int32, [4]> input_29_pad_0 = const()[name = tensor<string, []>("input_29_pad_0"), val = tensor<int32, [4]>([0, 0, 0, 0])];
            tensor<int32, [2]> input_29_dilations_0 = const()[name = tensor<string, []>("input_29_dilations_0"), val = tensor<int32, [2]>([1, 1])];
            tensor<int32, []> input_29_groups_0 = const()[name = tensor<string, []>("input_29_groups_0"), val = tensor<int32, []>(1)];
            tensor<fp16, [64, 64, 1, 1]> model_model_4_cv1_conv_weight_to_fp16 = const()[name = tensor<string, []>("model_model_4_cv1_conv_weight_to_fp16"), val = tensor<fp16, [64, 64, 1, 1]>(BLOBFILE(path = tensor<string, []>("@model_path/weights/weight.bin"), offset = tensor<uint64, []>(98048)))];
            tensor<fp16, [64]> model_model_4_cv1_conv_bias_to_fp16 = const()[name = tensor<string, []>("model_model_4_cv1_conv_bias_to_fp16"), val = tensor<fp16, [64]>(BLOBFILE(path = tensor<string, []>("@model_path/weights/weight.bin"), offset = tensor<uint64, []>(106304)))];
            tensor<fp16, [1, 64, 80, 80]> input_29_cast_fp16 = conv(bias = model_model_4_cv1_conv_bias_to_fp16, dilations = input_29_dilations_0, groups = input_29_groups_0, pad = input_29_pad_0, pad_type = input_29_pad_type_0, strides = input_29_strides_0, weight = model_model_4_cv1_conv_weight_to_fp16, x = input_27_cast_fp16)[name = tensor<string, []>("input_29_cast_fp16")];
            tensor<fp16, [1, 64, 80, 80]> var_147_cast_fp16 = silu(x = input_29_cast_fp16)[name = tensor<string, []>("op_147_cast_fp16")];
            tensor<int32, [2]> var_148 = const()[name = tensor<string, []>("op_148"), val = tensor<int32, [2]>([32, 32])];
            tensor<int32, []> var_149_axis_0 = const()[name = tensor<string, []>("op_149_axis_0"), val = tensor<int32, []>(1)];
            tensor<fp16, [1, 32, 80, 80]> var_149_cast_fp16_0, tensor<fp16, [1, 32, 80, 80]> var_149_cast_fp16_1 = split(axis = var_149_axis_0, split_sizes = var_148, x = var_147_cast_fp16)[name = tensor<string, []>("op_149_cast_fp16")];
            tensor<string, []> input_33_pad_type_0 = const()[name = tensor<string, []>("input_33_pad_type_0"), val = tensor<string, []>("custom")];
            tensor<int32, [4]> input_33_pad_0 = const()[name = tensor<string, []>("input_33_pad_0"), val = tensor<int32, [4]>([1, 1, 1, 1])];
            tensor<int32, [2]> input_33_strides_0 = const()[name = tensor<string, []>("input_33_strides_0"), val = tensor<int32, [2]>([1, 1])];
            tensor<int32, [2]> input_33_dilations_0 = const()[name = tensor<string, []>("input_33_dilations_0"), val = tensor<int32, [2]>([1, 1])];
            tensor<int32, []> input_33_groups_0 = const()[name = tensor<string, []>("input_33_groups_0"), val = tensor<int32, []>(1)];
            tensor<fp16, [16, 32, 3, 3]> model_model_4_m_0_cv1_conv_weight_to_fp16 = const()[name = tensor<string, []>("model_model_4_m_0_cv1_conv_weight_to_fp16"), val = tensor<fp16, [16, 32, 3, 3]>(BLOBFILE(path = tensor<string, []>("@model_path/weights/weight.bin"), offset = tensor<uint64, []>(106496)))];
            tensor<fp16, [16]> model_model_4_m_0_cv1_conv_bias_to_fp16 = const()[name = tensor<string, []>("model_model_4_m_0_cv1_conv_bias_to_fp16"), val = tensor<fp16, [16]>(BLOBFILE(path = tensor<string, []>("@model_path/weights/weight.bin"), offset = tensor<uint64, []>(115776)))];
            tensor<fp16, [1, 16, 80, 80]> input_33_cast_fp16 = conv(bias = model_model_4_m_0_cv1_conv_bias_to_fp16, dilations = input_33_dilations_0, groups = input_33_groups_0, pad = input_33_pad_0, pad_type = input_33_pad_type_0, strides = input_33_strides_0, weight = model_model_4_m_0_cv1_conv_weight_to_fp16, x = var_149_cast_fp16_1)[name = tensor<string, []>("input_33_cast_fp16")];
            tensor<fp16, [1, 16, 80, 80]> input_35_cast_fp16 = silu(x = input_33_cast_fp16)[name = tensor<string, []>("input_35_cast_fp16")];
            tensor<string, []> input_37_pad_type_0 = const()[name = tensor<string, []>("input_37_pad_type_0"), val = tensor<string, []>("custom")];
            tensor<int32, [4]> input_37_pad_0 = const()[name = tensor<string, []>("input_37_pad_0"), val = tensor<int32, [4]>([1, 1, 1, 1])];
            tensor<int32, [2]> input_37_strides_0 = const()[name = tensor<string, []>("input_37_strides_0"), val = tensor<int32, [2]>([1, 1])];
            tensor<int32, [2]> input_37_dilations_0 = const()[name = tensor<string, []>("input_37_dilations_0"), val = tensor<int32, [2]>([1, 1])];
            tensor<int32, []> input_37_groups_0 = const()[name = tensor<string, []>("input_37_groups_0"), val = tensor<int32, []>(1)];
            tensor<fp16, [32, 16, 3, 3]> model_model_4_m_0_cv2_conv_weight_to_fp16 = const()[name = tensor<string, []>("model_model_4_m_0_cv2_conv_weight_to_fp16"), val = tensor<fp16, [32, 16, 3, 3]>(BLOBFILE(path = tensor<string, []>("@model_path/weights/weight.bin"), offset = tensor<uint64, []>(115904)))];
            tensor<fp16, [32]> model_model_4_m_0_cv2_conv_bias_to_fp16 = const()[name = tensor<string, []>("model_model_4_m_0_cv2_conv_bias_to_fp16"), val = tensor<fp16, [32]>(BLOBFILE(path = tensor<string, []>("@model_path/weights/weight.bin"), offset = tensor<uint64, []>(125184)))];
            tensor<fp16, [1, 32, 80, 80]> input_37_cast_fp16 = conv(bias = model_model_4_m_0_cv2_conv_bias_to_fp16, dilations = input_37_dilations_0, groups = input_37_groups_0, pad = input_37_pad_0, pad_type = input_37_pad_type_0, strides = input_37_strides_0, weight = model_model_4_m_0_cv2_conv_weight_to_fp16, x = input_35_cast_fp16)[name = tensor<string, []>("input_37_cast_fp16")];
            tensor<fp16, [1, 32, 80, 80]> var_171_cast_fp16 = silu(x = input_37_cast_fp16)[name = tensor<string, []>("op_171_cast_fp16")];
            tensor<fp16, [1, 32, 80, 80]> var_172_cast_fp16 = add(x = var_149_cast_fp16_1, y = var_171_cast_fp16)[name = tensor<string, []>("op_172_cast_fp16")];
            tensor<bool, []> input_39_interleave_0 = const()[name = tensor<string, []>("input_39_interleave_0"), val = tensor<bool, []>(false)];
            tensor<fp16, [1, 96, 80, 80]> input_39_cast_fp16 = concat(axis = var_21, interleave = input_39_interleave_0, values = (var_149_cast_fp16_0, var_149_cast_fp16_1, var_172_cast_fp16))[name = tensor<string, []>("input_39_cast_fp16")];
            tensor<string, []> input_41_pad_type_0 = const()[name = tensor<string, []>("input_41_pad_type_0"), val = tensor<string, []>("valid")];
            tensor<int32, [2]> input_41_strides_0 = const()[name = tensor<string, []>("input_41_strides_0"), val = tensor<int32, [2]>([1, 1])];
            tensor<int32, [4]> input_41_pad_0 = const()[name = tensor<string, []>("input_41_pad_0"), val = tensor<int32, [4]>([0, 0, 0, 0])];
            tensor<int32, [2]> input_41_dilations_0 = const()[name = tensor<string, []>("input_41_dilations_0"), val = tensor<int32, [2]>([1, 1])];
            tensor<int32, []> input_41_groups_0 = const()[name = tensor<string, []>("input_41_groups_0"), val = tensor<int32, []>(1)];
            tensor<fp16, [128, 96, 1, 1]> model_model_4_cv2_conv_weight_to_fp16 = const()[name = tensor<string, []>("model_model_4_cv2_conv_weight_to_fp16"), val = tensor<fp16, [128, 96, 1, 1]>(BLOBFILE(path = tensor<string, []>("@model_path/weights/weight.bin"), offset = tensor<uint64, []>(125312)))];
            tensor<fp16, [128]> model_model_4_cv2_conv_bias_to_fp16 = const()[name = tensor<string, []>("model_model_4_cv2_conv_bias_to_fp16"), val = tensor<fp16, [128]>(BLOBFILE(path = tensor<string, []>("@model_path/weights/weight.bin"), offset = tensor<uint64, []>(149952)))];
            tensor<fp16, [1, 128, 80, 80]> input_41_cast_fp16 = conv(bias = model_model_4_cv2_conv_bias_to_fp16, dilations = input_41_dilations_0, groups = input_41_groups_0, pad = input_41_pad_0, pad_type = input_41_pad_type_0, strides = input_41_strides_0, weight = model_model_4_cv2_conv_weight_to_fp16, x = input_39_cast_fp16)[name = tensor<string, []>("input_41_cast_fp16")];
            tensor<fp16, [1, 128, 80, 80]> input_43_cast_fp16 = silu(x = input_41_cast_fp16)[name = tensor<string, []>("input_43_cast_fp16")];
            tensor<string, []> input_45_pad_type_0 = const()[name = tensor<string, []>("input_45_pad_type_0"), val = tensor<string, []>("custom")];
            tensor<int32, [4]> input_45_pad_0 = const()[name = tensor<string, []>("input_45_pad_0"), val = tensor<int32, [4]>([1, 1, 1, 1])];
            tensor<int32, [2]> input_45_strides_0 = const()[name = tensor<string, []>("input_45_strides_0"), val = tensor<int32, [2]>([2, 2])];
            tensor<int32, [2]> input_45_dilations_0 = const()[name = tensor<string, []>("input_45_dilations_0"), val = tensor<int32, [2]>([1, 1])];
            tensor<int32, []> input_45_groups_0 = const()[name = tensor<string, []>("input_45_groups_0"), val = tensor<int32, []>(1)];
            tensor<fp16, [128, 128, 3, 3]> model_model_5_conv_weight_to_fp16 = const()[name = tensor<string, []>("model_model_5_conv_weight_to_fp16"), val = tensor<fp16, [128, 128, 3, 3]>(BLOBFILE(path = tensor<string, []>("@model_path/weights/weight.bin"), offset = tensor<uint64, []>(150272)))];
            tensor<fp16, [128]> model_model_5_conv_bias_to_fp16 = const()[name = tensor<string, []>("model_model_5_conv_bias_to_fp16"), val = tensor<fp16, [128]>(BLOBFILE(path = tensor<string, []>("@model_path/weights/weight.bin"), offset = tensor<uint64, []>(445248)))];
            tensor<fp16, [1, 128, 40, 40]> input_45_cast_fp16 = conv(bias = model_model_5_conv_bias_to_fp16, dilations = input_45_dilations_0, groups = input_45_groups_0, pad = input_45_pad_0, pad_type = input_45_pad_type_0, strides = input_45_strides_0, weight = model_model_5_conv_weight_to_fp16, x = input_43_cast_fp16)[name = tensor<string, []>("input_45_cast_fp16")];
            tensor<fp16, [1, 128, 40, 40]> input_47_cast_fp16 = silu(x = input_45_cast_fp16)[name = tensor<string, []>("input_47_cast_fp16")];
            tensor<string, []> input_49_pad_type_0 = const()[name = tensor<string, []>("input_49_pad_type_0"), val = tensor<string, []>("valid")];
            tensor<int32, [2]> input_49_strides_0 = const()[name = tensor<string, []>("input_49_strides_0"), val = tensor<int32, [2]>([1, 1])];
            tensor<int32, [4]> input_49_pad_0 = const()[name = tensor<string, []>("input_49_pad_0"), val = tensor<int32, [4]>([0, 0, 0, 0])];
            tensor<int32, [2]> input_49_dilations_0 = const()[name = tensor<string, []>("input_49_dilations_0"), val = tensor<int32, [2]>([1, 1])];
            tensor<int32, []> input_49_groups_0 = const()[name = tensor<string, []>("input_49_groups_0"), val = tensor<int32, []>(1)];
            tensor<fp16, [128, 128, 1, 1]> model_model_6_cv1_conv_weight_to_fp16 = const()[name = tensor<string, []>("model_model_6_cv1_conv_weight_to_fp16"), val = tensor<fp16, [128, 128, 1, 1]>(BLOBFILE(path = tensor<string, []>("@model_path/weights/weight.bin"), offset = tensor<uint64, []>(445568)))];
            tensor<fp16, [128]> model_model_6_cv1_conv_bias_to_fp16 = const()[name = tensor<string, []>("model_model_6_cv1_conv_bias_to_fp16"), val = tensor<fp16, [128]>(BLOBFILE(path = tensor<string, []>("@model_path/weights/weight.bin"), offset = tensor<uint64, []>(478400)))];
            tensor<fp16, [1, 128, 40, 40]> input_49_cast_fp16 = conv(bias = model_model_6_cv1_conv_bias_to_fp16, dilations = input_49_dilations_0, groups = input_49_groups_0, pad = input_49_pad_0, pad_type = input_49_pad_type_0, strides = input_49_strides_0, weight = model_model_6_cv1_conv_weight_to_fp16, x = input_47_cast_fp16)[name = tensor<string, []>("input_49_cast_fp16")];
            tensor<fp16, [1, 128, 40, 40]> var_205_cast_fp16 = silu(x = input_49_cast_fp16)[name = tensor<string, []>("op_205_cast_fp16")];
            tensor<int32, [2]> var_206 = const()[name = tensor<string, []>("op_206"), val = tensor<int32, [2]>([64, 64])];
            tensor<int32, []> var_207_axis_0 = const()[name = tensor<string, []>("op_207_axis_0"), val = tensor<int32, []>(1)];
            tensor<fp16, [1, 64, 40, 40]> var_207_cast_fp16_0, tensor<fp16, [1, 64, 40, 40]> var_207_cast_fp16_1 = split(axis = var_207_axis_0, split_sizes = var_206, x = var_205_cast_fp16)[name = tensor<string, []>("op_207_cast_fp16")];
            tensor<string, []> input_53_pad_type_0 = const()[name = tensor<string, []>("input_53_pad_type_0"), val = tensor<string, []>("valid")];
            tensor<int32, [2]> input_53_strides_0 = const()[name = tensor<string, []>("input_53_strides_0"), val = tensor<int32, [2]>([1, 1])];
            tensor<int32, [4]> input_53_pad_0 = const()[name = tensor<string, []>("input_53_pad_0"), val = tensor<int32, [4]>([0, 0, 0, 0])];
            tensor<int32, [2]> input_53_dilations_0 = const()[name = tensor<string, []>("input_53_dilations_0"), val = tensor<int32, [2]>([1, 1])];
            tensor<int32, []> input_53_groups_0 = const()[name = tensor<string, []>("input_53_groups_0"), val = tensor<int32, []>(1)];
            tensor<fp16, [32, 64, 1, 1]> model_model_6_m_0_cv1_conv_weight_to_fp16 = const()[name = tensor<string, []>("model_model_6_m_0_cv1_conv_weight_to_fp16"), val = tensor<fp16, [32, 64, 1, 1]>(BLOBFILE(path = tensor<string, []>("@model_path/weights/weight.bin"), offset = tensor<uint64, []>(478720)))];
            tensor<fp16, [32]> model_model_6_m_0_cv1_conv_bias_to_fp16 = const()[name = tensor<string, []>("model_model_6_m_0_cv1_conv_bias_to_fp16"), val = tensor<fp16, [32]>(BLOBFILE(path = tensor<string, []>("@model_path/weights/weight.bin"), offset = tensor<uint64, []>(482880)))];
            tensor<fp16, [1, 32, 40, 40]> input_53_cast_fp16 = conv(bias = model_model_6_m_0_cv1_conv_bias_to_fp16, dilations = input_53_dilations_0, groups = input_53_groups_0, pad = input_53_pad_0, pad_type = input_53_pad_type_0, strides = input_53_strides_0, weight = model_model_6_m_0_cv1_conv_weight_to_fp16, x = var_207_cast_fp16_1)[name = tensor<string, []>("input_53_cast_fp16")];
            tensor<fp16, [1, 32, 40, 40]> input_55_cast_fp16 = silu(x = input_53_cast_fp16)[name = tensor<string, []>("input_55_cast_fp16")];
            tensor<string, []> input_57_pad_type_0 = const()[name = tensor<string, []>("input_57_pad_type_0"), val = tensor<string, []>("custom")];
            tensor<int32, [4]> input_57_pad_0 = const()[name = tensor<string, []>("input_57_pad_0"), val = tensor<int32, [4]>([1, 1, 1, 1])];
            tensor<int32, [2]> input_57_strides_0 = const()[name = tensor<string, []>("input_57_strides_0"), val = tensor<int32, [2]>([1, 1])];
            tensor<int32, [2]> input_57_dilations_0 = const()[name = tensor<string, []>("input_57_dilations_0"), val = tensor<int32, [2]>([1, 1])];
            tensor<int32, []> input_57_groups_0 = const()[name = tensor<string, []>("input_57_groups_0"), val = tensor<int32, []>(1)];
            tensor<fp16, [32, 32, 3, 3]> model_model_6_m_0_m_0_cv1_conv_weight_to_fp16 = const()[name = tensor<string, []>("model_model_6_m_0_m_0_cv1_conv_weight_to_fp16"), val = tensor<fp16, [32, 32, 3, 3]>(BLOBFILE(path = tensor<string, []>("@model_path/weights/weight.bin"), offset = tensor<uint64, []>(483008)))];
            tensor<fp16, [32]> model_model_6_m_0_m_0_cv1_conv_bias_to_fp16 = const()[name = tensor<string, []>("model_model_6_m_0_m_0_cv1_conv_bias_to_fp16"), val = tensor<fp16, [32]>(BLOBFILE(path = tensor<string, []>("@model_path/weights/weight.bin"), offset = tensor<uint64, []>(501504)))];
            tensor<fp16, [1, 32, 40, 40]> input_57_cast_fp16 = conv(bias = model_model_6_m_0_m_0_cv1_conv_bias_to_fp16, dilations = input_57_dilations_0, groups = input_57_groups_0, pad = input_57_pad_0, pad_type = input_57_pad_type_0, strides = input_57_strides_0, weight = model_model_6_m_0_m_0_cv1_conv_weight_to_fp16, x = input_55_cast_fp16)[name = tensor<string, []>("input_57_cast_fp16")];
            tensor<fp16, [1, 32, 40, 40]> input_59_cast_fp16 = silu(x = input_57_cast_fp16)[name = tensor<string, []>("input_59_cast_fp16")];
            tensor<string, []> input_61_pad_type_0 = const()[name = tensor<string, []>("input_61_pad_type_0"), val = tensor<string, []>("custom")];
            tensor<int32, [4]> input_61_pad_0 = const()[name = tensor<string, []>("input_61_pad_0"), val = tensor<int32, [4]>([1, 1, 1, 1])];
            tensor<int32, [2]> input_61_strides_0 = const()[name = tensor<string, []>("input_61_strides_0"), val = tensor<int32, [2]>([1, 1])];
            tensor<int32, [2]> input_61_dilations_0 = const()[name = tensor<string, []>("input_61_dilations_0"), val = tensor<int32, [2]>([1, 1])];
            tensor<int32, []> input_61_groups_0 = const()[name = tensor<string, []>("input_61_groups_0"), val = tensor<int32, []>(1)];
            tensor<fp16, [32, 32, 3, 3]> model_model_6_m_0_m_0_cv2_conv_weight_to_fp16 = const()[name = tensor<string, []>("model_model_6_m_0_m_0_cv2_conv_weight_to_fp16"), val = tensor<fp16, [32, 32, 3, 3]>(BLOBFILE(path = tensor<string, []>("@model_path/weights/weight.bin"), offset = tensor<uint64, []>(501632)))];
            tensor<fp16, [32]> model_model_6_m_0_m_0_cv2_conv_bias_to_fp16 = const()[name = tensor<string, []>("model_model_6_m_0_m_0_cv2_conv_bias_to_fp16"), val = tensor<fp16, [32]>(BLOBFILE(path = tensor<string, []>("@model_path/weights/weight.bin"), offset = tensor<uint64, []>(520128)))];
            tensor<fp16, [1, 32, 40, 40]> input_61_cast_fp16 = conv(bias = model_model_6_m_0_m_0_cv2_conv_bias_to_fp16, dilations = input_61_dilations_0, groups = input_61_groups_0, pad = input_61_pad_0, pad_type = input_61_pad_type_0, strides = input_61_strides_0, weight = model_model_6_m_0_m_0_cv2_conv_weight_to_fp16, x = input_59_cast_fp16)[name = tensor<string, []>("input_61_cast_fp16")];
            tensor<fp16, [1, 32, 40, 40]> var_244_cast_fp16 = silu(x = input_61_cast_fp16)[name = tensor<string, []>("op_244_cast_fp16")];
            tensor<fp16, [1, 32, 40, 40]> input_63_cast_fp16 = add(x = input_55_cast_fp16, y = var_244_cast_fp16)[name = tensor<string, []>("input_63_cast_fp16")];
            tensor<string, []> input_65_pad_type_0 = const()[name = tensor<string, []>("input_65_pad_type_0"), val = tensor<string, []>("custom")];
            tensor<int32, [4]> input_65_pad_0 = const()[name = tensor<string, []>("input_65_pad_0"), val = tensor<int32, [4]>([1, 1, 1, 1])];
            tensor<int32, [2]> input_65_strides_0 = const()[name = tensor<string, []>("input_65_strides_0"), val = tensor<int32, [2]>([1, 1])];
            tensor<int32, [2]> input_65_dilations_0 = const()[name = tensor<string, []>("input_65_dilations_0"), val = tensor<int32, [2]>([1, 1])];
            tensor<int32, []> input_65_groups_0 = const()[name = tensor<string, []>("input_65_groups_0"), val = tensor<int32, []>(1)];
            tensor<fp16, [32, 32, 3, 3]> model_model_6_m_0_m_1_cv1_conv_weight_to_fp16 = const()[name = tensor<string, []>("model_model_6_m_0_m_1_cv1_conv_weight_to_fp16"), val = tensor<fp16, [32, 32, 3, 3]>(BLOBFILE(path = tensor<string, []>("@model_path/weights/weight.bin"), offset = tensor<uint64, []>(520256)))];
            tensor<fp16, [32]> model_model_6_m_0_m_1_cv1_conv_bias_to_fp16 = const()[name = tensor<string, []>("model_model_6_m_0_m_1_cv1_conv_bias_to_fp16"), val = tensor<fp16, [32]>(BLOBFILE(path = tensor<string, []>("@model_path/weights/weight.bin"), offset = tensor<uint64, []>(538752)))];
            tensor<fp16, [1, 32, 40, 40]> input_65_cast_fp16 = conv(bias = model_model_6_m_0_m_1_cv1_conv_bias_to_fp16, dilations = input_65_dilations_0, groups = input_65_groups_0, pad = input_65_pad_0, pad_type = input_65_pad_type_0, strides = input_65_strides_0, weight = model_model_6_m_0_m_1_cv1_conv_weight_to_fp16, x = input_63_cast_fp16)[name = tensor<string, []>("input_65_cast_fp16")];
            tensor<fp16, [1, 32, 40, 40]> input_67_cast_fp16 = silu(x = input_65_cast_fp16)[name = tensor<string, []>("input_67_cast_fp16")];
            tensor<string, []> input_69_pad_type_0 = const()[name = tensor<string, []>("input_69_pad_type_0"), val = tensor<string, []>("custom")];
            tensor<int32, [4]> input_69_pad_0 = const()[name = tensor<string, []>("input_69_pad_0"), val = tensor<int32, [4]>([1, 1, 1, 1])];
            tensor<int32, [2]> input_69_strides_0 = const()[name = tensor<string, []>("input_69_strides_0"), val = tensor<int32, [2]>([1, 1])];
            tensor<int32, [2]> input_69_dilations_0 = const()[name = tensor<string, []>("input_69_dilations_0"), val = tensor<int32, [2]>([1, 1])];
            tensor<int32, []> input_69_groups_0 = const()[name = tensor<string, []>("input_69_groups_0"), val = tensor<int32, []>(1)];
            tensor<fp16, [32, 32, 3, 3]> model_model_6_m_0_m_1_cv2_conv_weight_to_fp16 = const()[name = tensor<string, []>("model_model_6_m_0_m_1_cv2_conv_weight_to_fp16"), val = tensor<fp16, [32, 32, 3, 3]>(BLOBFILE(path = tensor<string, []>("@model_path/weights/weight.bin"), offset = tensor<uint64, []>(538880)))];
            tensor<fp16, [32]> model_model_6_m_0_m_1_cv2_conv_bias_to_fp16 = const()[name = tensor<string, []>("model_model_6_m_0_m_1_cv2_conv_bias_to_fp16"), val = tensor<fp16, [32]>(BLOBFILE(path = tensor<string, []>("@model_path/weights/weight.bin"), offset = tensor<uint64, []>(557376)))];
            tensor<fp16, [1, 32, 40, 40]> input_69_cast_fp16 = conv(bias = model_model_6_m_0_m_1_cv2_conv_bias_to_fp16, dilations = input_69_dilations_0, groups = input_69_groups_0, pad = input_69_pad_0, pad_type = input_69_pad_type_0, strides = input_69_strides_0, weight = model_model_6_m_0_m_1_cv2_conv_weight_to_fp16, x = input_67_cast_fp16)[name = tensor<string, []>("input_69_cast_fp16")];
            tensor<fp16, [1, 32, 40, 40]> var_265_cast_fp16 = silu(x = input_69_cast_fp16)[name = tensor<string, []>("op_265_cast_fp16")];
            tensor<fp16, [1, 32, 40, 40]> var_266_cast_fp16 = add(x = input_63_cast_fp16, y = var_265_cast_fp16)[name = tensor<string, []>("op_266_cast_fp16")];
            tensor<string, []> input_71_pad_type_0 = const()[name = tensor<string, []>("input_71_pad_type_0"), val = tensor<string, []>("valid")];
            tensor<int32, [2]> input_71_strides_0 = const()[name = tensor<string, []>("input_71_strides_0"), val = tensor<int32, [2]>([1, 1])];
            tensor<int32, [4]> input_71_pad_0 = const()[name = tensor<string, []>("input_71_pad_0"), val = tensor<int32, [4]>([0, 0, 0, 0])];
            tensor<int32, [2]> input_71_dilations_0 = const()[name = tensor<string, []>("input_71_dilations_0"), val = tensor<int32, [2]>([1, 1])];
            tensor<int32, []> input_71_groups_0 = const()[name = tensor<string, []>("input_71_groups_0"), val = tensor<int32, []>(1)];
            tensor<fp16, [32, 64, 1, 1]> model_model_6_m_0_cv2_conv_weight_to_fp16 = const()[name = tensor<string, []>("model_model_6_m_0_cv2_conv_weight_to_fp16"), val = tensor<fp16, [32, 64, 1, 1]>(BLOBFILE(path = tensor<string, []>("@model_path/weights/weight.bin"), offset = tensor<uint64, []>(557504)))];
            tensor<fp16, [32]> model_model_6_m_0_cv2_conv_bias_to_fp16 = const()[name = tensor<string, []>("model_model_6_m_0_cv2_conv_bias_to_fp16"), val = tensor<fp16, [32]>(BLOBFILE(path = tensor<string, []>("@model_path/weights/weight.bin"), offset = tensor<uint64, []>(561664)))];
            tensor<fp16, [1, 32, 40, 40]> input_71_cast_fp16 = conv(bias = model_model_6_m_0_cv2_conv_bias_to_fp16, dilations = input_71_dilations_0, groups = input_71_groups_0, pad = input_71_pad_0, pad_type = input_71_pad_type_0, strides = input_71_strides_0, weight = model_model_6_m_0_cv2_conv_weight_to_fp16, x = var_207_cast_fp16_1)[name = tensor<string, []>("input_71_cast_fp16")];
            tensor<fp16, [1, 32, 40, 40]> var_275_cast_fp16 = silu(x = input_71_cast_fp16)[name = tensor<string, []>("op_275_cast_fp16")];
            tensor<bool, []> input_73_interleave_0 = const()[name = tensor<string, []>("input_73_interleave_0"), val = tensor<bool, []>(false)];
            tensor<fp16, [1, 64, 40, 40]> input_73_cast_fp16 = concat(axis = var_21, interleave = input_73_interleave_0, values = (var_266_cast_fp16, var_275_cast_fp16))[name = tensor<string, []>("input_73_cast_fp16")];
            tensor<string, []> input_75_pad_type_0 = const()[name = tensor<string, []>("input_75_pad_type_0"), val = tensor<string, []>("valid")];
            tensor<int32, [2]> input_75_strides_0 = const()[name = tensor<string, []>("input_75_strides_0"), val = tensor<int32, [2]>([1, 1])];
            tensor<int32, [4]> input_75_pad_0 = const()[name = tensor<string, []>("input_75_pad_0"), val = tensor<int32, [4]>([0, 0, 0, 0])];
            tensor<int32, [2]> input_75_dilations_0 = const()[name = tensor<string, []>("input_75_dilations_0"), val = tensor<int32, [2]>([1, 1])];
            tensor<int32, []> input_75_groups_0 = const()[name = tensor<string, []>("input_75_groups_0"), val = tensor<int32, []>(1)];
            tensor<fp16, [64, 64, 1, 1]> model_model_6_m_0_cv3_conv_weight_to_fp16 = const()[name = tensor<string, []>("model_model_6_m_0_cv3_conv_weight_to_fp16"), val = tensor<fp16, [64, 64, 1, 1]>(BLOBFILE(path = tensor<string, []>("@model_path/weights/weight.bin"), offset = tensor<uint64, []>(561792)))];
            tensor<fp16, [64]> model_model_6_m_0_cv3_conv_bias_to_fp16 = const()[name = tensor<string, []>("model_model_6_m_0_cv3_conv_bias_to_fp16"), val = tensor<fp16, [64]>(BLOBFILE(path = tensor<string, []>("@model_path/weights/weight.bin"), offset = tensor<uint64, []>(570048)))];
            tensor<fp16, [1, 64, 40, 40]> input_75_cast_fp16 = conv(bias = model_model_6_m_0_cv3_conv_bias_to_fp16, dilations = input_75_dilations_0, groups = input_75_groups_0, pad = input_75_pad_0, pad_type = input_75_pad_type_0, strides = input_75_strides_0, weight = model_model_6_m_0_cv3_conv_weight_to_fp16, x = input_73_cast_fp16)[name = tensor<string, []>("input_75_cast_fp16")];
            tensor<fp16, [1, 64, 40, 40]> var_286_cast_fp16 = silu(x = input_75_cast_fp16)[name = tensor<string, []>("op_286_cast_fp16")];
            tensor<bool, []> input_77_interleave_0 = const()[name = tensor<string, []>("input_77_interleave_0"), val = tensor<bool, []>(false)];
            tensor<fp16, [1, 192, 40, 40]> input_77_cast_fp16 = concat(axis = var_21, interleave = input_77_interleave_0, values = (var_207_cast_fp16_0, var_207_cast_fp16_1, var_286_cast_fp16))[name = tensor<string, []>("input_77_cast_fp16")];
            tensor<string, []> input_79_pad_type_0 = const()[name = tensor<string, []>("input_79_pad_type_0"), val = tensor<string, []>("valid")];
            tensor<int32, [2]> input_79_strides_0 = const()[name = tensor<string, []>("input_79_strides_0"), val = tensor<int32, [2]>([1, 1])];
            tensor<int32, [4]> input_79_pad_0 = const()[name = tensor<string, []>("input_79_pad_0"), val = tensor<int32, [4]>([0, 0, 0, 0])];
            tensor<int32, [2]> input_79_dilations_0 = const()[name = tensor<string, []>("input_79_dilations_0"), val = tensor<int32, [2]>([1, 1])];
            tensor<int32, []> input_79_groups_0 = const()[name = tensor<string, []>("input_79_groups_0"), val = tensor<int32, []>(1)];
            tensor<fp16, [128, 192, 1, 1]> model_model_6_cv2_conv_weight_to_fp16 = const()[name = tensor<string, []>("model_model_6_cv2_conv_weight_to_fp16"), val = tensor<fp16, [128, 192, 1, 1]>(BLOBFILE(path = tensor<string, []>("@model_path/weights/weight.bin"), offset = tensor<uint64, []>(570240)))];
            tensor<fp16, [128]> model_model_6_cv2_conv_bias_to_fp16 = const()[name = tensor<string, []>("model_model_6_cv2_conv_bias_to_fp16"), val = tensor<fp16, [128]>(BLOBFILE(path = tensor<string, []>("@model_path/weights/weight.bin"), offset = tensor<uint64, []>(619456)))];
            tensor<fp16, [1, 128, 40, 40]> input_79_cast_fp16 = conv(bias = model_model_6_cv2_conv_bias_to_fp16, dilations = input_79_dilations_0, groups = input_79_groups_0, pad = input_79_pad_0, pad_type = input_79_pad_type_0, strides = input_79_strides_0, weight = model_model_6_cv2_conv_weight_to_fp16, x = input_77_cast_fp16)[name = tensor<string, []>("input_79_cast_fp16")];
            tensor<fp16, [1, 128, 40, 40]> input_81_cast_fp16 = silu(x = input_79_cast_fp16)[name = tensor<string, []>("input_81_cast_fp16")];
            tensor<string, []> input_83_pad_type_0 = const()[name = tensor<string, []>("input_83_pad_type_0"), val = tensor<string, []>("custom")];
            tensor<int32, [4]> input_83_pad_0 = const()[name = tensor<string, []>("input_83_pad_0"), val = tensor<int32, [4]>([1, 1, 1, 1])];
            tensor<int32, [2]> input_83_strides_0 = const()[name = tensor<string, []>("input_83_strides_0"), val = tensor<int32, [2]>([2, 2])];
            tensor<int32, [2]> input_83_dilations_0 = const()[name = tensor<string, []>("input_83_dilations_0"), val = tensor<int32, [2]>([1, 1])];
            tensor<int32, []> input_83_groups_0 = const()[name = tensor<string, []>("input_83_groups_0"), val = tensor<int32, []>(1)];
            tensor<fp16, [256, 128, 3, 3]> model_model_7_conv_weight_to_fp16 = const()[name = tensor<string, []>("model_model_7_conv_weight_to_fp16"), val = tensor<fp16, [256, 128, 3, 3]>(BLOBFILE(path = tensor<string, []>("@model_path/weights/weight.bin"), offset = tensor<uint64, []>(619776)))];
            tensor<fp16, [256]> model_model_7_conv_bias_to_fp16 = const()[name = tensor<string, []>("model_model_7_conv_bias_to_fp16"), val = tensor<fp16, [256]>(BLOBFILE(path = tensor<string, []>("@model_path/weights/weight.bin"), offset = tensor<uint64, []>(1209664)))];
            tensor<fp16, [1, 256, 20, 20]> input_83_cast_fp16 = conv(bias = model_model_7_conv_bias_to_fp16, dilations = input_83_dilations_0, groups = input_83_groups_0, pad = input_83_pad_0, pad_type = input_83_pad_type_0, strides = input_83_strides_0, weight = model_model_7_conv_weight_to_fp16, x = input_81_cast_fp16)[name = tensor<string, []>("input_83_cast_fp16")];
            tensor<fp16, [1, 256, 20, 20]> input_85_cast_fp16 = silu(x = input_83_cast_fp16)[name = tensor<string, []>("input_85_cast_fp16")];
            tensor<string, []> input_87_pad_type_0 = const()[name = tensor<string, []>("input_87_pad_type_0"), val = tensor<string, []>("valid")];
            tensor<int32, [2]> input_87_strides_0 = const()[name = tensor<string, []>("input_87_strides_0"), val = tensor<int32, [2]>([1, 1])];
            tensor<int32, [4]> input_87_pad_0 = const()[name = tensor<string, []>("input_87_pad_0"), val = tensor<int32, [4]>([0, 0, 0, 0])];
            tensor<int32, [2]> input_87_dilations_0 = const()[name = tensor<string, []>("input_87_dilations_0"), val = tensor<int32, [2]>([1, 1])];
            tensor<int32, []> input_87_groups_0 = const()[name = tensor<string, []>("input_87_groups_0"), val = tensor<int32, []>(1)];
            tensor<fp16, [256, 256, 1, 1]> model_model_8_cv1_conv_weight_to_fp16 = const()[name = tensor<string, []>("model_model_8_cv1_conv_weight_to_fp16"), val = tensor<fp16, [256, 256, 1, 1]>(BLOBFILE(path = tensor<string, []>("@model_path/weights/weight.bin"), offset = tensor<uint64, []>(1210240)))];
            tensor<fp16, [256]> model_model_8_cv1_conv_bias_to_fp16 = const()[name = tensor<string, []>("model_model_8_cv1_conv_bias_to_fp16"), val = tensor<fp16, [256]>(BLOBFILE(path = tensor<string, []>("@model_path/weights/weight.bin"), offset = tensor<uint64, []>(1341376)))];
            tensor<fp16, [1, 256, 20, 20]> input_87_cast_fp16 = conv(bias = model_model_8_cv1_conv_bias_to_fp16, dilations = input_87_dilations_0, groups = input_87_groups_0, pad = input_87_pad_0, pad_type = input_87_pad_type_0, strides = input_87_strides_0, weight = model_model_8_cv1_conv_weight_to_fp16, x = input_85_cast_fp16)[name = tensor<string, []>("input_87_cast_fp16")];
            tensor<fp16, [1, 256, 20, 20]> var_319_cast_fp16 = silu(x = input_87_cast_fp16)[name = tensor<string, []>("op_319_cast_fp16")];
            tensor<int32, [2]> var_320 = const()[name = tensor<string, []>("op_320"), val = tensor<int32, [2]>([128, 128])];
            tensor<int32, []> var_321_axis_0 = const()[name = tensor<string, []>("op_321_axis_0"), val = tensor<int32, []>(1)];
            tensor<fp16, [1, 128, 20, 20]> var_321_cast_fp16_0, tensor<fp16, [1, 128, 20, 20]> var_321_cast_fp16_1 = split(axis = var_321_axis_0, split_sizes = var_320, x = var_319_cast_fp16)[name = tensor<string, []>("op_321_cast_fp16")];
            tensor<string, []> input_91_pad_type_0 = const()[name = tensor<string, []>("input_91_pad_type_0"), val = tensor<string, []>("valid")];
            tensor<int32, [2]> input_91_strides_0 = const()[name = tensor<string, []>("input_91_strides_0"), val = tensor<int32, [2]>([1, 1])];
            tensor<int32, [4]> input_91_pad_0 = const()[name = tensor<string, []>("input_91_pad_0"), val = tensor<int32, [4]>([0, 0, 0, 0])];
            tensor<int32, [2]> input_91_dilations_0 = const()[name = tensor<string, []>("input_91_dilations_0"), val = tensor<int32, [2]>([1, 1])];
            tensor<int32, []> input_91_groups_0 = const()[name = tensor<string, []>("input_91_groups_0"), val = tensor<int32, []>(1)];
            tensor<fp16, [64, 128, 1, 1]> model_model_8_m_0_cv1_conv_weight_to_fp16 = const()[name = tensor<string, []>("model_model_8_m_0_cv1_conv_weight_to_fp16"), val = tensor<fp16, [64, 128, 1, 1]>(BLOBFILE(path = tensor<string, []>("@model_path/weights/weight.bin"), offset = tensor<uint64, []>(1341952)))];
            tensor<fp16, [64]> model_model_8_m_0_cv1_conv_bias_to_fp16 = const()[name = tensor<string, []>("model_model_8_m_0_cv1_conv_bias_to_fp16"), val = tensor<fp16, [64]>(BLOBFILE(path = tensor<string, []>("@model_path/weights/weight.bin"), offset = tensor<uint64, []>(1358400)))];
            tensor<fp16, [1, 64, 20, 20]> input_91_cast_fp16 = conv(bias = model_model_8_m_0_cv1_conv_bias_to_fp16, dilations = input_91_dilations_0, groups = input_91_groups_0, pad = input_91_pad_0, pad_type = input_91_pad_type_0, strides = input_91_strides_0, weight = model_model_8_m_0_cv1_conv_weight_to_fp16, x = var_321_cast_fp16_1)[name = tensor<string, []>("input_91_cast_fp16")];
            tensor<fp16, [1, 64, 20, 20]> input_93_cast_fp16 = silu(x = input_91_cast_fp16)[name = tensor<string, []>("input_93_cast_fp16")];
            tensor<string, []> input_95_pad_type_0 = const()[name = tensor<string, []>("input_95_pad_type_0"), val = tensor<string, []>("custom")];
            tensor<int32, [4]> input_95_pad_0 = const()[name = tensor<string, []>("input_95_pad_0"), val = tensor<int32, [4]>([1, 1, 1, 1])];
            tensor<int32, [2]> input_95_strides_0 = const()[name = tensor<string, []>("input_95_strides_0"), val = tensor<int32, [2]>([1, 1])];
            tensor<int32, [2]> input_95_dilations_0 = const()[name = tensor<string, []>("input_95_dilations_0"), val = tensor<int32, [2]>([1, 1])];
            tensor<int32, []> input_95_groups_0 = const()[name = tensor<string, []>("input_95_groups_0"), val = tensor<int32, []>(1)];
            tensor<fp16, [64, 64, 3, 3]> model_model_8_m_0_m_0_cv1_conv_weight_to_fp16 = const()[name = tensor<string, []>("model_model_8_m_0_m_0_cv1_conv_weight_to_fp16"), val = tensor<fp16, [64, 64, 3, 3]>(BLOBFILE(path = tensor<string, []>("@model_path/weights/weight.bin"), offset = tensor<uint64, []>(1358592)))];
            tensor<fp16, [64]> model_model_8_m_0_m_0_cv1_conv_bias_to_fp16 = const()[name = tensor<string, []>("model_model_8_m_0_m_0_cv1_conv_bias_to_fp16"), val = tensor<fp16, [64]>(BLOBFILE(path = tensor<string, []>("@model_path/weights/weight.bin"), offset = tensor<uint64, []>(1432384)))];
            tensor<fp16, [1, 64, 20, 20]> input_95_cast_fp16 = conv(bias = model_model_8_m_0_m_0_cv1_conv_bias_to_fp16, dilations = input_95_dilations_0, groups = input_95_groups_0, pad = input_95_pad_0, pad_type = input_95_pad_type_0, strides = input_95_strides_0, weight = model_model_8_m_0_m_0_cv1_conv_weight_to_fp16, x = input_93_cast_fp16)[name = tensor<string, []>("input_95_cast_fp16")];
            tensor<fp16, [1, 64, 20, 20]> input_97_cast_fp16 = silu(x = input_95_cast_fp16)[name = tensor<string, []>("input_97_cast_fp16")];
            tensor<string, []> input_99_pad_type_0 = const()[name = tensor<string, []>("input_99_pad_type_0"), val = tensor<string, []>("custom")];
            tensor<int32, [4]> input_99_pad_0 = const()[name = tensor<string, []>("input_99_pad_0"), val = tensor<int32, [4]>([1, 1, 1, 1])];
            tensor<int32, [2]> input_99_strides_0 = const()[name = tensor<string, []>("input_99_strides_0"), val = tensor<int32, [2]>([1, 1])];
            tensor<int32, [2]> input_99_dilations_0 = const()[name = tensor<string, []>("input_99_dilations_0"), val = tensor<int32, [2]>([1, 1])];
            tensor<int32, []> input_99_groups_0 = const()[name = tensor<string, []>("input_99_groups_0"), val = tensor<int32, []>(1)];
            tensor<fp16, [64, 64, 3, 3]> model_model_8_m_0_m_0_cv2_conv_weight_to_fp16 = const()[name = tensor<string, []>("model_model_8_m_0_m_0_cv2_conv_weight_to_fp16"), val = tensor<fp16, [64, 64, 3, 3]>(BLOBFILE(path = tensor<string, []>("@model_path/weights/weight.bin"), offset = tensor<uint64, []>(1432576)))];
            tensor<fp16, [64]> model_model_8_m_0_m_0_cv2_conv_bias_to_fp16 = const()[name = tensor<string, []>("model_model_8_m_0_m_0_cv2_conv_bias_to_fp16"), val = tensor<fp16, [64]>(BLOBFILE(path = tensor<string, []>("@model_path/weights/weight.bin"), offset = tensor<uint64, []>(1506368)))];
            tensor<fp16, [1, 64, 20, 20]> input_99_cast_fp16 = conv(bias = model_model_8_m_0_m_0_cv2_conv_bias_to_fp16, dilations = input_99_dilations_0, groups = input_99_groups_0, pad = input_99_pad_0, pad_type = input_99_pad_type_0, strides = input_99_strides_0, weight = model_model_8_m_0_m_0_cv2_conv_weight_to_fp16, x = input_97_cast_fp16)[name = tensor<string, []>("input_99_cast_fp16")];
            tensor<fp16, [1, 64, 20, 20]> var_358_cast_fp16 = silu(x = input_99_cast_fp16)[name = tensor<string, []>("op_358_cast_fp16")];
            tensor<fp16, [1, 64, 20, 20]> input_101_cast_fp16 = add(x = input_93_cast_fp16, y = var_358_cast_fp16)[name = tensor<string, []>("input_101_cast_fp16")];
            tensor<string, []> input_103_pad_type_0 = const()[name = tensor<string, []>("input_103_pad_type_0"), val = tensor<string, []>("custom")];
            tensor<int32, [4]> input_103_pad_0 = const()[name = tensor<string, []>("input_103_pad_0"), val = tensor<int32, [4]>([1, 1, 1, 1])];
            tensor<int32, [2]> input_103_strides_0 = const()[name = tensor<string, []>("input_103_strides_0"), val = tensor<int32, [2]>([1, 1])];
            tensor<int32, [2]> input_103_dilations_0 = const()[name = tensor<string, []>("input_103_dilations_0"), val = tensor<int32, [2]>([1, 1])];
            tensor<int32, []> input_103_groups_0 = const()[name = tensor<string, []>("input_103_groups_0"), val = tensor<int32, []>(1)];
            tensor<fp16, [64, 64, 3, 3]> model_model_8_m_0_m_1_cv1_conv_weight_to_fp16 = const()[name = tensor<string, []>("model_model_8_m_0_m_1_cv1_conv_weight_to_fp16"), val = tensor<fp16, [64, 64, 3, 3]>(BLOBFILE(path = tensor<string, []>("@model_path/weights/weight.bin"), offset = tensor<uint64, []>(1506560)))];
            tensor<fp16, [64]> model_model_8_m_0_m_1_cv1_conv_bias_to_fp16 = const()[name = tensor<string, []>("model_model_8_m_0_m_1_cv1_conv_bias_to_fp16"), val = tensor<fp16, [64]>(BLOBFILE(path = tensor<string, []>("@model_path/weights/weight.bin"), offset = tensor<uint64, []>(1580352)))];
            tensor<fp16, [1, 64, 20, 20]> input_103_cast_fp16 = conv(bias = model_model_8_m_0_m_1_cv1_conv_bias_to_fp16, dilations = input_103_dilations_0, groups = input_103_groups_0, pad = input_103_pad_0, pad_type = input_103_pad_type_0, strides = input_103_strides_0, weight = model_model_8_m_0_m_1_cv1_conv_weight_to_fp16, x = input_101_cast_fp16)[name = tensor<string, []>("input_103_cast_fp16")];
            tensor<fp16, [1, 64, 20, 20]> input_105_cast_fp16 = silu(x = input_103_cast_fp16)[name = tensor<string, []>("input_105_cast_fp16")];
            tensor<string, []> input_107_pad_type_0 = const()[name = tensor<string, []>("input_107_pad_type_0"), val = tensor<string, []>("custom")];
            tensor<int32, [4]> input_107_pad_0 = const()[name = tensor<string, []>("input_107_pad_0"), val = tensor<int32, [4]>([1, 1, 1, 1])];
            tensor<int32, [2]> input_107_strides_0 = const()[name = tensor<string, []>("input_107_strides_0"), val = tensor<int32, [2]>([1, 1])];
            tensor<int32, [2]> input_107_dilations_0 = const()[name = tensor<string, []>("input_107_dilations_0"), val = tensor<int32, [2]>([1, 1])];
            tensor<int32, []> input_107_groups_0 = const()[name = tensor<string, []>("input_107_groups_0"), val = tensor<int32, []>(1)];
            tensor<fp16, [64, 64, 3, 3]> model_model_8_m_0_m_1_cv2_conv_weight_to_fp16 = const()[name = tensor<string, []>("model_model_8_m_0_m_1_cv2_conv_weight_to_fp16"), val = tensor<fp16, [64, 64, 3, 3]>(BLOBFILE(path = tensor<string, []>("@model_path/weights/weight.bin"), offset = tensor<uint64, []>(1580544)))];
            tensor<fp16, [64]> model_model_8_m_0_m_1_cv2_conv_bias_to_fp16 = const()[name = tensor<string, []>("model_model_8_m_0_m_1_cv2_conv_bias_to_fp16"), val = tensor<fp16, [64]>(BLOBFILE(path = tensor<string, []>("@model_path/weights/weight.bin"), offset = tensor<uint64, []>(1654336)))];
            tensor<fp16, [1, 64, 20, 20]> input_107_cast_fp16 = conv(bias = model_model_8_m_0_m_1_cv2_conv_bias_to_fp16, dilations = input_107_dilations_0, groups = input_107_groups_0, pad = input_107_pad_0, pad_type = input_107_pad_type_0, strides = input_107_strides_0, weight = model_model_8_m_0_m_1_cv2_conv_weight_to_fp16, x = input_105_cast_fp16)[name = tensor<string, []>("input_107_cast_fp16")];
            tensor<fp16, [1, 64, 20, 20]> var_379_cast_fp16 = silu(x = input_107_cast_fp16)[name = tensor<string, []>("op_379_cast_fp16")];
            tensor<fp16, [1, 64, 20, 20]> var_380_cast_fp16 = add(x = input_101_cast_fp16, y = var_379_cast_fp16)[name = tensor<string, []>("op_380_cast_fp16")];
            tensor<string, []> input_109_pad_type_0 = const()[name = tensor<string, []>("input_109_pad_type_0"), val = tensor<string, []>("valid")];
            tensor<int32, [2]> input_109_strides_0 = const()[name = tensor<string, []>("input_109_strides_0"), val = tensor<int32, [2]>([1, 1])];
            tensor<int32, [4]> input_109_pad_0 = const()[name = tensor<string, []>("input_109_pad_0"), val = tensor<int32, [4]>([0, 0, 0, 0])];
            tensor<int32, [2]> input_109_dilations_0 = const()[name = tensor<string, []>("input_109_dilations_0"), val = tensor<int32, [2]>([1, 1])];
            tensor<int32, []> input_109_groups_0 = const()[name = tensor<string, []>("input_109_groups_0"), val = tensor<int32, []>(1)];
            tensor<fp16, [64, 128, 1, 1]> model_model_8_m_0_cv2_conv_weight_to_fp16 = const()[name = tensor<string, []>("model_model_8_m_0_cv2_conv_weight_to_fp16"), val = tensor<fp16, [64, 128, 1, 1]>(BLOBFILE(path = tensor<string, []>("@model_path/weights/weight.bin"), offset = tensor<uint64, []>(1654528)))];
            tensor<fp16, [64]> model_model_8_m_0_cv2_conv_bias_to_fp16 = const()[name = tensor<string, []>("model_model_8_m_0_cv2_conv_bias_to_fp16"), val = tensor<fp16, [64]>(BLOBFILE(path = tensor<string, []>("@model_path/weights/weight.bin"), offset = tensor<uint64, []>(1670976)))];
            tensor<fp16, [1, 64, 20, 20]> input_109_cast_fp16 = conv(bias = model_model_8_m_0_cv2_conv_bias_to_fp16, dilations = input_109_dilations_0, groups = input_109_groups_0, pad = input_109_pad_0, pad_type = input_109_pad_type_0, strides = input_109_strides_0, weight = model_model_8_m_0_cv2_conv_weight_to_fp16, x = var_321_cast_fp16_1)[name = tensor<string, []>("input_109_cast_fp16")];
            tensor<fp16, [1, 64, 20, 20]> var_389_cast_fp16 = silu(x = input_109_cast_fp16)[name = tensor<string, []>("op_389_cast_fp16")];
            tensor<bool, []> input_111_interleave_0 = const()[name = tensor<string, []>("input_111_interleave_0"), val = tensor<bool, []>(false)];
            tensor<fp16, [1, 128, 20, 20]> input_111_cast_fp16 = concat(axis = var_21, interleave = input_111_interleave_0, values = (var_380_cast_fp16, var_389_cast_fp16))[name = tensor<string, []>("input_111_cast_fp16")];
            tensor<string, []> input_113_pad_type_0 = const()[name = tensor<string, []>("input_113_pad_type_0"), val = tensor<string, []>("valid")];
            tensor<int32, [2]> input_113_strides_0 = const()[name = tensor<string, []>("input_113_strides_0"), val = tensor<int32, [2]>([1, 1])];
            tensor<int32, [4]> input_113_pad_0 = const()[name = tensor<string, []>("input_113_pad_0"), val = tensor<int32, [4]>([0, 0, 0, 0])];
            tensor<int32, [2]> input_113_dilations_0 = const()[name = tensor<string, []>("input_113_dilations_0"), val = tensor<int32, [2]>([1, 1])];
            tensor<int32, []> input_113_groups_0 = const()[name = tensor<string, []>("input_113_groups_0"), val = tensor<int32, []>(1)];
            tensor<fp16, [128, 128, 1, 1]> model_model_8_m_0_cv3_conv_weight_to_fp16 = const()[name = tensor<string, []>("model_model_8_m_0_cv3_conv_weight_to_fp16"), val = tensor<fp16, [128, 128, 1, 1]>(BLOBFILE(path = tensor<string, []>("@model_path/weights/weight.bin"), offset = tensor<uint64, []>(1671168)))];
            tensor<fp16, [128]> model_model_8_m_0_cv3_conv_bias_to_fp16 = const()[name = tensor<string, []>("model_model_8_m_0_cv3_conv_bias_to_fp16"), val = tensor<fp16, [128]>(BLOBFILE(path = tensor<string, []>("@model_path/weights/weight.bin"), offset = tensor<uint64, []>(1704000)))];
            tensor<fp16, [1, 128, 20, 20]> input_113_cast_fp16 = conv(bias = model_model_8_m_0_cv3_conv_bias_to_fp16, dilations = input_113_dilations_0, groups = input_113_groups_0, pad = input_113_pad_0, pad_type = input_113_pad_type_0, strides = input_113_strides_0, weight = model_model_8_m_0_cv3_conv_weight_to_fp16, x = input_111_cast_fp16)[name = tensor<string, []>("input_113_cast_fp16")];
            tensor<fp16, [1, 128, 20, 20]> var_400_cast_fp16 = silu(x = input_113_cast_fp16)[name = tensor<string, []>("op_400_cast_fp16")];
            tensor<bool, []> input_115_interleave_0 = const()[name = tensor<string, []>("input_115_interleave_0"), val = tensor<bool, []>(false)];
            tensor<fp16, [1, 384, 20, 20]> input_115_cast_fp16 = concat(axis = var_21, interleave = input_115_interleave_0, values = (var_321_cast_fp16_0, var_321_cast_fp16_1, var_400_cast_fp16))[name = tensor<string, []>("input_115_cast_fp16")];
            tensor<string, []> input_117_pad_type_0 = const()[name = tensor<string, []>("input_117_pad_type_0"), val = tensor<string, []>("valid")];
            tensor<int32, [2]> input_117_strides_0 = const()[name = tensor<string, []>("input_117_strides_0"), val = tensor<int32, [2]>([1, 1])];
            tensor<int32, [4]> input_117_pad_0 = const()[name = tensor<string, []>("input_117_pad_0"), val = tensor<int32, [4]>([0, 0, 0, 0])];
            tensor<int32, [2]> input_117_dilations_0 = const()[name = tensor<string, []>("input_117_dilations_0"), val = tensor<int32, [2]>([1, 1])];
            tensor<int32, []> input_117_groups_0 = const()[name = tensor<string, []>("input_117_groups_0"), val = tensor<int32, []>(1)];
            tensor<fp16, [256, 384, 1, 1]> model_model_8_cv2_conv_weight_to_fp16 = const()[name = tensor<string, []>("model_model_8_cv2_conv_weight_to_fp16"), val = tensor<fp16, [256, 384, 1, 1]>(BLOBFILE(path = tensor<string, []>("@model_path/weights/weight.bin"), offset = tensor<uint64, []>(1704320)))];
            tensor<fp16, [256]> model_model_8_cv2_conv_bias_to_fp16 = const()[name = tensor<string, []>("model_model_8_cv2_conv_bias_to_fp16"), val = tensor<fp16, [256]>(BLOBFILE(path = tensor<string, []>("@model_path/weights/weight.bin"), offset = tensor<uint64, []>(1900992)))];
            tensor<fp16, [1, 256, 20, 20]> input_117_cast_fp16 = conv(bias = model_model_8_cv2_conv_bias_to_fp16, dilations = input_117_dilations_0, groups = input_117_groups_0, pad = input_117_pad_0, pad_type = input_117_pad_type_0, strides = input_117_strides_0, weight = model_model_8_cv2_conv_weight_to_fp16, x = input_115_cast_fp16)[name = tensor<string, []>("input_117_cast_fp16")];
            tensor<fp16, [1, 256, 20, 20]> input_119_cast_fp16 = silu(x = input_117_cast_fp16)[name = tensor<string, []>("input_119_cast_fp16")];
            tensor<string, []> input_121_pad_type_0 = const()[name = tensor<string, []>("input_121_pad_type_0"), val = tensor<string, []>("valid")];
            tensor<int32, [2]> input_121_strides_0 = const()[name = tensor<string, []>("input_121_strides_0"), val = tensor<int32, [2]>([1, 1])];
            tensor<int32, [4]> input_121_pad_0 = const()[name = tensor<string, []>("input_121_pad_0"), val = tensor<int32, [4]>([0, 0, 0, 0])];
            tensor<int32, [2]> input_121_dilations_0 = const()[name = tensor<string, []>("input_121_dilations_0"), val = tensor<int32, [2]>([1, 1])];
            tensor<int32, []> input_121_groups_0 = const()[name = tensor<string, []>("input_121_groups_0"), val = tensor<int32, []>(1)];
            tensor<fp16, [128, 256, 1, 1]> model_model_9_cv1_conv_weight_to_fp16 = const()[name = tensor<string, []>("model_model_9_cv1_conv_weight_to_fp16"), val = tensor<fp16, [128, 256, 1, 1]>(BLOBFILE(path = tensor<string, []>("@model_path/weights/weight.bin"), offset = tensor<uint64, []>(1901568)))];
            tensor<fp16, [128]> model_model_9_cv1_conv_bias_to_fp16 = const()[name = tensor<string, []>("model_model_9_cv1_conv_bias_to_fp16"), val = tensor<fp16, [128]>(BLOBFILE(path = tensor<string, []>("@model_path/weights/weight.bin"), offset = tensor<uint64, []>(1967168)))];
            tensor<fp16, [1, 128, 20, 20]> input_121_cast_fp16 = conv(bias = model_model_9_cv1_conv_bias_to_fp16, dilations = input_121_dilations_0, groups = input_121_groups_0, pad = input_121_pad_0, pad_type = input_121_pad_type_0, strides = input_121_strides_0, weight = model_model_9_cv1_conv_weight_to_fp16, x = input_119_cast_fp16)[name = tensor<string, []>("input_121_cast_fp16")];
            tensor<fp16, [1, 128, 20, 20]> input_123_cast_fp16 = silu(x = input_121_cast_fp16)[name = tensor<string, []>("input_123_cast_fp16")];
            tensor<int32, [2]> var_423 = const()[name = tensor<string, []>("op_423"), val = tensor<int32, [2]>([5, 5])];
            tensor<int32, [2]> var_424 = const()[name = tensor<string, []>("op_424"), val = tensor<int32, [2]>([1, 1])];
            tensor<string, []> input_125_pad_type_0 = const()[name = tensor<string, []>("input_125_pad_type_0"), val = tensor<string, []>("custom")];
            tensor<int32, [4]> input_125_pad_0 = const()[name = tensor<string, []>("input_125_pad_0"), val = tensor<int32, [4]>([2, 2, 2, 2])];
            tensor<bool, []> input_125_ceil_mode_0 = const()[name = tensor<string, []>("input_125_ceil_mode_0"), val = tensor<bool, []>(false)];
            tensor<fp16, [1, 128, 20, 20]> input_125_cast_fp16 = max_pool(ceil_mode = input_125_ceil_mode_0, kernel_sizes = var_423, pad = input_125_pad_0, pad_type = input_125_pad_type_0, strides = var_424, x = input_123_cast_fp16)[name = tensor<string, []>("input_125_cast_fp16")];
            tensor<int32, [2]> var_428 = const()[name = tensor<string, []>("op_428"), val = tensor<int32, [2]>([5, 5])];
            tensor<int32, [2]> var_429 = const()[name = tensor<string, []>("op_429"), val = tensor<int32, [2]>([1, 1])];
            tensor<string, []> input_127_pad_type_0 = const()[name = tensor<string, []>("input_127_pad_type_0"), val = tensor<string, []>("custom")];
            tensor<int32, [4]> input_127_pad_0 = const()[name = tensor<string, []>("input_127_pad_0"), val = tensor<int32, [4]>([2, 2, 2, 2])];
            tensor<bool, []> input_127_ceil_mode_0 = const()[name = tensor<string, []>("input_127_ceil_mode_0"), val = tensor<bool, []>(false)];
            tensor<fp16, [1, 128, 20, 20]> input_127_cast_fp16 = max_pool(ceil_mode = input_127_ceil_mode_0, kernel_sizes = var_428, pad = input_127_pad_0, pad_type = input_127_pad_type_0, strides = var_429, x = input_125_cast_fp16)[name = tensor<string, []>("input_127_cast_fp16")];
            tensor<int32, [2]> var_433 = const()[name = tensor<string, []>("op_433"), val = tensor<int32, [2]>([5, 5])];
            tensor<int32, [2]> var_434 = const()[name = tensor<string, []>("op_434"), val = tensor<int32, [2]>([1, 1])];
            tensor<string, []> var_437_pad_type_0 = const()[name = tensor<string, []>("op_437_pad_type_0"), val = tensor<string, []>("custom")];
            tensor<int32, [4]> var_437_pad_0 = const()[name = tensor<string, []>("op_437_pad_0"), val = tensor<int32, [4]>([2, 2, 2, 2])];
            tensor<bool, []> var_437_ceil_mode_0 = const()[name = tensor<string, []>("op_437_ceil_mode_0"), val = tensor<bool, []>(false)];
            tensor<fp16, [1, 128, 20, 20]> var_437_cast_fp16 = max_pool(ceil_mode = var_437_ceil_mode_0, kernel_sizes = var_433, pad = var_437_pad_0, pad_type = var_437_pad_type_0, strides = var_434, x = input_127_cast_fp16)[name = tensor<string, []>("op_437_cast_fp16")];
            tensor<bool, []> input_129_interleave_0 = const()[name = tensor<string, []>("input_129_interleave_0"), val = tensor<bool, []>(false)];
            tensor<fp16, [1, 512, 20, 20]> input_129_cast_fp16 = concat(axis = var_21, interleave = input_129_interleave_0, values = (input_123_cast_fp16, input_125_cast_fp16, input_127_cast_fp16, var_437_cast_fp16))[name = tensor<string, []>("input_129_cast_fp16")];
            tensor<string, []> input_131_pad_type_0 = const()[name = tensor<string, []>("input_131_pad_type_0"), val = tensor<string, []>("valid")];
            tensor<int32, [2]> input_131_strides_0 = const()[name = tensor<string, []>("input_131_strides_0"), val = tensor<int32, [2]>([1, 1])];
            tensor<int32, [4]> input_131_pad_0 = const()[name = tensor<string, []>("input_131_pad_0"), val = tensor<int32, [4]>([0, 0, 0, 0])];
            tensor<int32, [2]> input_131_dilations_0 = const()[name = tensor<string, []>("input_131_dilations_0"), val = tensor<int32, [2]>([1, 1])];
            tensor<int32, []> input_131_groups_0 = const()[name = tensor<string, []>("input_131_groups_0"), val = tensor<int32, []>(1)];
            tensor<fp16, [256, 512, 1, 1]> model_model_9_cv2_conv_weight_to_fp16 = const()[name = tensor<string, []>("model_model_9_cv2_conv_weight_to_fp16"), val = tensor<fp16, [256, 512, 1, 1]>(BLOBFILE(path = tensor<string, []>("@model_path/weights/weight.bin"), offset = tensor<uint64, []>(1967488)))];
            tensor<fp16, [256]> model_model_9_cv2_conv_bias_to_fp16 = const()[name = tensor<string, []>("model_model_9_cv2_conv_bias_to_fp16"), val = tensor<fp16, [256]>(BLOBFILE(path = tensor<string, []>("@model_path/weights/weight.bin"), offset = tensor<uint64, []>(2229696)))];
            tensor<fp16, [1, 256, 20, 20]> input_131_cast_fp16 = conv(bias = model_model_9_cv2_conv_bias_to_fp16, dilations = input_131_dilations_0, groups = input_131_groups_0, pad = input_131_pad_0, pad_type = input_131_pad_type_0, strides = input_131_strides_0, weight = model_model_9_cv2_conv_weight_to_fp16, x = input_129_cast_fp16)[name = tensor<string, []>("input_131_cast_fp16")];
            tensor<fp16, [1, 256, 20, 20]> input_133_cast_fp16 = silu(x = input_131_cast_fp16)[name = tensor<string, []>("input_133_cast_fp16")];
            tensor<string, []> input_135_pad_type_0 = const()[name = tensor<string, []>("input_135_pad_type_0"), val = tensor<string, []>("valid")];
            tensor<int32, [2]> input_135_strides_0 = const()[name = tensor<string, []>("input_135_strides_0"), val = tensor<int32, [2]>([1, 1])];
            tensor<int32, [4]> input_135_pad_0 = const()[name = tensor<string, []>("input_135_pad_0"), val = tensor<int32, [4]>([0, 0, 0, 0])];
            tensor<int32, [2]> input_135_dilations_0 = const()[name = tensor<string, []>("input_135_dilations_0"), val = tensor<int32, [2]>([1, 1])];
            tensor<int32, []> input_135_groups_0 = const()[name = tensor<string, []>("input_135_groups_0"), val = tensor<int32, []>(1)];
            tensor<fp16, [256, 256, 1, 1]> model_model_10_cv1_conv_weight_to_fp16 = const()[name = tensor<string, []>("model_model_10_cv1_conv_weight_to_fp16"), val = tensor<fp16, [256, 256, 1, 1]>(BLOBFILE(path = tensor<string, []>("@model_path/weights/weight.bin"), offset = tensor<uint64, []>(2230272)))];
            tensor<fp16, [256]> model_model_10_cv1_conv_bias_to_fp16 = const()[name = tensor<string, []>("model_model_10_cv1_conv_bias_to_fp16"), val = tensor<fp16, [256]>(BLOBFILE(path = tensor<string, []>("@model_path/weights/weight.bin"), offset = tensor<uint64, []>(2361408)))];
            tensor<fp16, [1, 256, 20, 20]> input_135_cast_fp16 = conv(bias = model_model_10_cv1_conv_bias_to_fp16, dilations = input_135_dilations_0, groups = input_135_groups_0, pad = input_135_pad_0, pad_type = input_135_pad_type_0, strides = input_135_strides_0, weight = model_model_10_cv1_conv_weight_to_fp16, x = input_133_cast_fp16)[name = tensor<string, []>("input_135_cast_fp16")];
            tensor<fp16, [1, 256, 20, 20]> var_460_cast_fp16 = silu(x = input_135_cast_fp16)[name = tensor<string, []>("op_460_cast_fp16")];
            tensor<int32, [2]> var_461 = const()[name = tensor<string, []>("op_461"), val = tensor<int32, [2]>([128, 128])];
            tensor<int32, []> var_462_axis_0 = const()[name = tensor<string, []>("op_462_axis_0"), val = tensor<int32, []>(1)];
            tensor<fp16, [1, 128, 20, 20]> var_462_cast_fp16_0, tensor<fp16, [1, 128, 20, 20]> var_462_cast_fp16_1 = split(axis = var_462_axis_0, split_sizes = var_461, x = var_460_cast_fp16)[name = tensor<string, []>("op_462_cast_fp16")];
            tensor<string, []> qkv_1_pad_type_0 = const()[name = tensor<string, []>("qkv_1_pad_type_0"), val = tensor<string, []>("valid")];
            tensor<int32, [2]> qkv_1_strides_0 = const()[name = tensor<string, []>("qkv_1_strides_0"), val = tensor<int32, [2]>([1, 1])];
            tensor<int32, [4]> qkv_1_pad_0 = const()[name = tensor<string, []>("qkv_1_pad_0"), val = tensor<int32, [4]>([0, 0, 0, 0])];
            tensor<int32, [2]> qkv_1_dilations_0 = const()[name = tensor<string, []>("qkv_1_dilations_0"), val = tensor<int32, [2]>([1, 1])];
            tensor<int32, []> qkv_1_groups_0 = const()[name = tensor<string, []>("qkv_1_groups_0"), val = tensor<int32, []>(1)];
            tensor<fp16, [256, 128, 1, 1]> model_model_10_m_0_attn_qkv_conv_weight_to_fp16 = const()[name = tensor<string, []>("model_model_10_m_0_attn_qkv_conv_weight_to_fp16"), val = tensor<fp16, [256, 128, 1, 1]>(BLOBFILE(path = tensor<string, []>("@model_path/weights/weight.bin"), offset = tensor<uint64, []>(2361984)))];
            tensor<fp16, [256]> model_model_10_m_0_attn_qkv_conv_bias_to_fp16 = const()[name = tensor<string, []>("model_model_10_m_0_attn_qkv_conv_bias_to_fp16"), val = tensor<fp16, [256]>(BLOBFILE(path = tensor<string, []>("@model_path/weights/weight.bin"), offset = tensor<uint64, []>(2427584)))];
            tensor<fp16, [1, 256, 20, 20]> qkv_1_cast_fp16 = conv(bias = model_model_10_m_0_attn_qkv_conv_bias_to_fp16, dilations = qkv_1_dilations_0, groups = qkv_1_groups_0, pad = qkv_1_pad_0, pad_type = qkv_1_pad_type_0, strides = qkv_1_strides_0, weight = model_model_10_m_0_attn_qkv_conv_weight_to_fp16, x = var_462_cast_fp16_1)[name = tensor<string, []>("qkv_1_cast_fp16")];
            tensor<int32, [4]> var_487 = const()[name = tensor<string, []>("op_487"), val = tensor<int32, [4]>([1, 2, 128, 400])];
            tensor<fp16, [1, 2, 128, 400]> var_488_cast_fp16 = reshape(shape = var_487, x = qkv_1_cast_fp16)[name = tensor<string, []>("op_488_cast_fp16")];
            tensor<int32, [3]> var_489 = const()[name = tensor<string, []>("op_489"), val = tensor<int32, [3]>([32, 32, 64])];
            tensor<int32, []> var_490_axis_0 = const()[name = tensor<string, []>("op_490_axis_0"), val = tensor<int32, []>(2)];
            tensor<fp16, [1, 2, 32, 400]> var_490_cast_fp16_0, tensor<fp16, [1, 2, 32, 400]> var_490_cast_fp16_1, tensor<fp16, [1, 2, 64, 400]> var_490_cast_fp16_2 = split(axis = var_490_axis_0, split_sizes = var_489, x = var_488_cast_fp16)[name = tensor<string, []>("op_490_cast_fp16")];
            tensor<bool, []> var_495_transpose_x_1 = const()[name = tensor<string, []>("op_495_transpose_x_1"), val = tensor<bool, []>(true)];
            tensor<bool, []> var_495_transpose_y_1 = const()[name = tensor<string, []>("op_495_transpose_y_1"), val = tensor<bool, []>(false)];
            tensor<fp16, [1, 2, 400, 400]> var_495_cast_fp16 = matmul(transpose_x = var_495_transpose_x_1, transpose_y = var_495_transpose_y_1, x = var_490_cast_fp16_0, y = var_490_cast_fp16_1)[name = tensor<string, []>("op_495_cast_fp16")];
            tensor<fp16, []> var_496_to_fp16 = const()[name = tensor<string, []>("op_496_to_fp16"), val = tensor<fp16, []>(0x1.6ap-3)];
            tensor<fp16, [1, 2, 400, 400]> attn_1_cast_fp16 = mul(x = var_495_cast_fp16, y = var_496_to_fp16)[name = tensor<string, []>("attn_1_cast_fp16")];
            tensor<fp16, [1, 2, 400, 400]> attn_3_cast_fp16 = softmax(axis = var_10, x = attn_1_cast_fp16)[name = tensor<string, []>("attn_3_cast_fp16")];
            tensor<bool, []> var_500_transpose_x_1 = const()[name = tensor<string, []>("op_500_transpose_x_1"), val = tensor<bool, []>(false)];
            tensor<bool, []> var_500_transpose_y_1 = const()[name = tensor<string, []>("op_500_transpose_y_1"), val = tensor<bool, []>(true)];
            tensor<fp16, [1, 2, 64, 400]> var_500_cast_fp16 = matmul(transpose_x = var_500_transpose_x_1, transpose_y = var_500_transpose_y_1, x = var_490_cast_fp16_2, y = attn_3_cast_fp16)[name = tensor<string, []>("op_500_cast_fp16")];
            tensor<int32, [4]> var_501 = const()[name = tensor<string, []>("op_501"), val = tensor<int32, [4]>([1, 128, 20, 20])];
            tensor<fp16, [1, 128, 20, 20]> var_502_cast_fp16 = reshape(shape = var_501, x = var_500_cast_fp16)[name = tensor<string, []>("op_502_cast_fp16")];
            tensor<int32, [4]> var_503 = const()[name = tensor<string, []>("op_503"), val = tensor<int32, [4]>([1, 128, 20, 20])];
            tensor<fp16, [1, 128, 20, 20]> input_137_cast_fp16 = reshape(shape = var_503, x = var_490_cast_fp16_2)[name = tensor<string, []>("input_137_cast_fp16")];
            tensor<string, []> var_512_pad_type_0 = const()[name = tensor<string, []>("op_512_pad_type_0"), val = tensor<string, []>("custom")];
            tensor<int32, [4]> var_512_pad_0 = const()[name = tensor<string, []>("op_512_pad_0"), val = tensor<int32, [4]>([1, 1, 1, 1])];
            tensor<int32, []> var_512_groups_0 = const()[name = tensor<string, []>("op_512_groups_0"), val = tensor<int32, []>(128)];
            tensor<int32, [2]> var_512_strides_0 = const()[name = tensor<string, []>("op_512_strides_0"), val = tensor<int32, [2]>([1, 1])];
            tensor<int32, [2]> var_512_dilations_0 = const()[name = tensor<string, []>("op_512_dilations_0"), val = tensor<int32, [2]>([1, 1])];
            tensor<fp16, [128, 1, 3, 3]> model_model_10_m_0_attn_pe_conv_weight_to_fp16 = const()[name = tensor<string, []>("model_model_10_m_0_attn_pe_conv_weight_to_fp16"), val = tensor<fp16, [128, 1, 3, 3]>(BLOBFILE(path = tensor<string, []>("@model_path/weights/weight.bin"), offset = tensor<uint64, []>(2428160)))];
            tensor<fp16, [128]> model_model_10_m_0_attn_pe_conv_bias_to_fp16 = const()[name = tensor<string, []>("model_model_10_m_0_attn_pe_conv_bias_to_fp16"), val = tensor<fp16, [128]>(BLOBFILE(path = tensor<string, []>("@model_path/weights/weight.bin"), offset = tensor<uint64, []>(2430528)))];
            tensor<fp16, [1, 128, 20, 20]> var_512_cast_fp16 = conv(bias = model_model_10_m_0_attn_pe_conv_bias_to_fp16, dilations = var_512_dilations_0, groups = var_512_groups_0, pad = var_512_pad_0, pad_type = var_512_pad_type_0, strides = var_512_strides_0, weight = model_model_10_m_0_attn_pe_conv_weight_to_fp16, x = input_137_cast_fp16)[name = tensor<string, []>("op_512_cast_fp16")];
            tensor<fp16, [1, 128, 20, 20]> input_139_cast_fp16 = add(x = var_502_cast_fp16, y = var_512_cast_fp16)[name = tensor<string, []>("input_139_cast_fp16")];
            tensor<string, []> var_521_pad_type_0 = const()[name = tensor<string, []>("op_521_pad_type_0"), val = tensor<string, []>("valid")];
            tensor<int32, [2]> var_521_strides_0 = const()[name = tensor<string, []>("op_521_strides_0"), val = tensor<int32, [2]>([1, 1])];
            tensor<int32, [4]> var_521_pad_0 = const()[name = tensor<string, []>("op_521_pad_0"), val = tensor<int32, [4]>([0, 0, 0, 0])];
            tensor<int32, [2]> var_521_dilations_0 = const()[name = tensor<string, []>("op_521_dilations_0"), val = tensor<int32, [2]>([1, 1])];
            tensor<int32, []> var_521_groups_0 = const()[name = tensor<string, []>("op_521_groups_0"), val = tensor<int32, []>(1)];
            tensor<fp16, [128, 128, 1, 1]> model_model_10_m_0_attn_proj_conv_weight_to_fp16 = const()[name = tensor<string, []>("model_model_10_m_0_attn_proj_conv_weight_to_fp16"), val = tensor<fp16, [128, 128, 1, 1]>(BLOBFILE(path = tensor<string, []>("@model_path/weights/weight.bin"), offset = tensor<uint64, []>(2430848)))];
            tensor<fp16, [128]> model_model_10_m_0_attn_proj_conv_bias_to_fp16 = const()[name = tensor<string, []>("model_model_10_m_0_attn_proj_conv_bias_to_fp16"), val = tensor<fp16, [128]>(BLOBFILE(path = tensor<string, []>("@model_path/weights/weight.bin"), offset = tensor<uint64, []>(2463680)))];
            tensor<fp16, [1, 128, 20, 20]> var_521_cast_fp16 = conv(bias = model_model_10_m_0_attn_proj_conv_bias_to_fp16, dilations = var_521_dilations_0, groups = var_521_groups_0, pad = var_521_pad_0, pad_type = var_521_pad_type_0, strides = var_521_strides_0, weight = model_model_10_m_0_attn_proj_conv_weight_to_fp16, x = input_139_cast_fp16)[name = tensor<string, []>("op_521_cast_fp16")];
            tensor<fp16, [1, 128, 20, 20]> input_141_cast_fp16 = add(x = var_462_cast_fp16_1, y = var_521_cast_fp16)[name = tensor<string, []>("input_141_cast_fp16")];
            tensor<string, []> input_143_pad_type_0 = const()[name = tensor<string, []>("input_143_pad_type_0"), val = tensor<string, []>("valid")];
            tensor<int32, [2]> input_143_strides_0 = const()[name = tensor<string, []>("input_143_strides_0"), val = tensor<int32, [2]>([1, 1])];
            tensor<int32, [4]> input_143_pad_0 = const()[name = tensor<string, []>("input_143_pad_0"), val = tensor<int32, [4]>([0, 0, 0, 0])];
            tensor<int32, [2]> input_143_dilations_0 = const()[name = tensor<string, []>("input_143_dilations_0"), val = tensor<int32, [2]>([1, 1])];
            tensor<int32, []> input_143_groups_0 = const()[name = tensor<string, []>("input_143_groups_0"), val = tensor<int32, []>(1)];
            tensor<fp16, [256, 128, 1, 1]> model_model_10_m_0_ffn_0_conv_weight_to_fp16 = const()[name = tensor<string, []>("model_model_10_m_0_ffn_0_conv_weight_to_fp16"), val = tensor<fp16, [256, 128, 1, 1]>(BLOBFILE(path = tensor<string, []>("@model_path/weights/weight.bin"), offset = tensor<uint64, []>(2464000)))];
            tensor<fp16, [256]> model_model_10_m_0_ffn_0_conv_bias_to_fp16 = const()[name = tensor<string, []>("model_model_10_m_0_ffn_0_conv_bias_to_fp16"), val = tensor<fp16, [256]>(BLOBFILE(path = tensor<string, []>("@model_path/weights/weight.bin"), offset = tensor<uint64, []>(2529600)))];
            tensor<fp16, [1, 256, 20, 20]> input_143_cast_fp16 = conv(bias = model_model_10_m_0_ffn_0_conv_bias_to_fp16, dilations = input_143_dilations_0, groups = input_143_groups_0, pad = input_143_pad_0, pad_type = input_143_pad_type_0, strides = input_143_strides_0, weight = model_model_10_m_0_ffn_0_conv_weight_to_fp16, x = input_141_cast_fp16)[name = tensor<string, []>("input_143_cast_fp16")];
            tensor<fp16, [1, 256, 20, 20]> input_145_cast_fp16 = silu(x = input_143_cast_fp16)[name = tensor<string, []>("input_145_cast_fp16")];
            tensor<string, []> var_541_pad_type_0 = const()[name = tensor<string, []>("op_541_pad_type_0"), val = tensor<string, []>("valid")];
            tensor<int32, [2]> var_541_strides_0 = const()[name = tensor<string, []>("op_541_strides_0"), val = tensor<int32, [2]>([1, 1])];
            tensor<int32, [4]> var_541_pad_0 = const()[name = tensor<string, []>("op_541_pad_0"), val = tensor<int32, [4]>([0, 0, 0, 0])];
            tensor<int32, [2]> var_541_dilations_0 = const()[name = tensor<string, []>("op_541_dilations_0"), val = tensor<int32, [2]>([1, 1])];
            tensor<int32, []> var_541_groups_0 = const()[name = tensor<string, []>("op_541_groups_0"), val = tensor<int32, []>(1)];
            tensor<fp16, [128, 256, 1, 1]> model_model_10_m_0_ffn_1_conv_weight_to_fp16 = const()[name = tensor<string, []>("model_model_10_m_0_ffn_1_conv_weight_to_fp16"), val = tensor<fp16, [128, 256, 1, 1]>(BLOBFILE(path = tensor<string, []>("@model_path/weights/weight.bin"), offset = tensor<uint64, []>(2530176)))];
            tensor<fp16, [128]> model_model_10_m_0_ffn_1_conv_bias_to_fp16 = const()[name = tensor<string, []>("model_model_10_m_0_ffn_1_conv_bias_to_fp16"), val = tensor<fp16, [128]>(BLOBFILE(path = tensor<string, []>("@model_path/weights/weight.bin"), offset = tensor<uint64, []>(2595776)))];
            tensor<fp16, [1, 128, 20, 20]> var_541_cast_fp16 = conv(bias = model_model_10_m_0_ffn_1_conv_bias_to_fp16, dilations = var_541_dilations_0, groups = var_541_groups_0, pad = var_541_pad_0, pad_type = var_541_pad_type_0, strides = var_541_strides_0, weight = model_model_10_m_0_ffn_1_conv_weight_to_fp16, x = input_145_cast_fp16)[name = tensor<string, []>("op_541_cast_fp16")];
            tensor<fp16, [1, 128, 20, 20]> b_1_cast_fp16 = add(x = input_141_cast_fp16, y = var_541_cast_fp16)[name = tensor<string, []>("b_1_cast_fp16")];
            tensor<bool, []> input_147_interleave_0 = const()[name = tensor<string, []>("input_147_interleave_0"), val = tensor<bool, []>(false)];
            tensor<fp16, [1, 256, 20, 20]> input_147_cast_fp16 = concat(axis = var_21, interleave = input_147_interleave_0, values = (var_462_cast_fp16_0, b_1_cast_fp16))[name = tensor<string, []>("input_147_cast_fp16")];
            tensor<string, []> input_149_pad_type_0 = const()[name = tensor<string, []>("input_149_pad_type_0"), val = tensor<string, []>("valid")];
            tensor<int32, [2]> input_149_strides_0 = const()[name = tensor<string, []>("input_149_strides_0"), val = tensor<int32, [2]>([1, 1])];
            tensor<int32, [4]> input_149_pad_0 = const()[name = tensor<string, []>("input_149_pad_0"), val = tensor<int32, [4]>([0, 0, 0, 0])];
            tensor<int32, [2]> input_149_dilations_0 = const()[name = tensor<string, []>("input_149_dilations_0"), val = tensor<int32, [2]>([1, 1])];
            tensor<int32, []> input_149_groups_0 = const()[name = tensor<string, []>("input_149_groups_0"), val = tensor<int32, []>(1)];
            tensor<fp16, [256, 256, 1, 1]> model_model_10_cv2_conv_weight_to_fp16 = const()[name = tensor<string, []>("model_model_10_cv2_conv_weight_to_fp16"), val = tensor<fp16, [256, 256, 1, 1]>(BLOBFILE(path = tensor<string, []>("@model_path/weights/weight.bin"), offset = tensor<uint64, []>(2596096)))];
            tensor<fp16, [256]> model_model_10_cv2_conv_bias_to_fp16 = const()[name = tensor<string, []>("model_model_10_cv2_conv_bias_to_fp16"), val = tensor<fp16, [256]>(BLOBFILE(path = tensor<string, []>("@model_path/weights/weight.bin"), offset = tensor<uint64, []>(2727232)))];
            tensor<fp16, [1, 256, 20, 20]> input_149_cast_fp16 = conv(bias = model_model_10_cv2_conv_bias_to_fp16, dilations = input_149_dilations_0, groups = input_149_groups_0, pad = input_149_pad_0, pad_type = input_149_pad_type_0, strides = input_149_strides_0, weight = model_model_10_cv2_conv_weight_to_fp16, x = input_147_cast_fp16)[name = tensor<string, []>("input_149_cast_fp16")];
            tensor<fp16, [1, 256, 20, 20]> input_151_cast_fp16 = silu(x = input_149_cast_fp16)[name = tensor<string, []>("input_151_cast_fp16")];
            tensor<fp32, []> var_555_scale_factor_height_0 = const()[name = tensor<string, []>("op_555_scale_factor_height_0"), val = tensor<fp32, []>(0x1p+1)];
            tensor<fp32, []> var_555_scale_factor_width_0 = const()[name = tensor<string, []>("op_555_scale_factor_width_0"), val = tensor<fp32, []>(0x1p+1)];
            tensor<fp16, [1, 256, 40, 40]> var_555_cast_fp16 = upsample_nearest_neighbor(scale_factor_height = var_555_scale_factor_height_0, scale_factor_width = var_555_scale_factor_width_0, x = input_151_cast_fp16)[name = tensor<string, []>("op_555_cast_fp16")];
            tensor<bool, []> input_153_interleave_0 = const()[name = tensor<string, []>("input_153_interleave_0"), val = tensor<bool, []>(false)];
            tensor<fp16, [1, 384, 40, 40]> input_153_cast_fp16 = concat(axis = var_21, interleave = input_153_interleave_0, values = (var_555_cast_fp16, input_81_cast_fp16))[name = tensor<string, []>("input_153_cast_fp16")];
            tensor<string, []> input_155_pad_type_0 = const()[name = tensor<string, []>("input_155_pad_type_0"), val = tensor<string, []>("valid")];
            tensor<int32, [2]> input_155_strides_0 = const()[name = tensor<string, []>("input_155_strides_0"), val = tensor<int32, [2]>([1, 1])];
            tensor<int32, [4]> input_155_pad_0 = const()[name = tensor<string, []>("input_155_pad_0"), val = tensor<int32, [4]>([0, 0, 0, 0])];
            tensor<int32, [2]> input_155_dilations_0 = const()[name = tensor<string, []>("input_155_dilations_0"), val = tensor<int32, [2]>([1, 1])];
            tensor<int32, []> input_155_groups_0 = const()[name = tensor<string, []>("input_155_groups_0"), val = tensor<int32, []>(1)];
            tensor<fp16, [128, 384, 1, 1]> model_model_13_cv1_conv_weight_to_fp16 = const()[name = tensor<string, []>("model_model_13_cv1_conv_weight_to_fp16"), val = tensor<fp16, [128, 384, 1, 1]>(BLOBFILE(path = tensor<string, []>("@model_path/weights/weight.bin"), offset = tensor<uint64, []>(2727808)))];
            tensor<fp16, [128]> model_model_13_cv1_conv_bias_to_fp16 = const()[name = tensor<string, []>("model_model_13_cv1_conv_bias_to_fp16"), val = tensor<fp16, [128]>(BLOBFILE(path = tensor<string, []>("@model_path/weights/weight.bin"), offset = tensor<uint64, []>(2826176)))];
            tensor<fp16, [1, 128, 40, 40]> input_155_cast_fp16 = conv(bias = model_model_13_cv1_conv_bias_to_fp16, dilations = input_155_dilations_0, groups = input_155_groups_0, pad = input_155_pad_0, pad_type = input_155_pad_type_0, strides = input_155_strides_0, weight = model_model_13_cv1_conv_weight_to_fp16, x = input_153_cast_fp16)[name = tensor<string, []>("input_155_cast_fp16")];
            tensor<fp16, [1, 128, 40, 40]> var_570_cast_fp16 = silu(x = input_155_cast_fp16)[name = tensor<string, []>("op_570_cast_fp16")];
            tensor<int32, [2]> var_571 = const()[name = tensor<string, []>("op_571"), val = tensor<int32, [2]>([64, 64])];
            tensor<int32, []> var_572_axis_0 = const()[name = tensor<string, []>("op_572_axis_0"), val = tensor<int32, []>(1)];
            tensor<fp16, [1, 64, 40, 40]> var_572_cast_fp16_0, tensor<fp16, [1, 64, 40, 40]> var_572_cast_fp16_1 = split(axis = var_572_axis_0, split_sizes = var_571, x = var_570_cast_fp16)[name = tensor<string, []>("op_572_cast_fp16")];
            tensor<string, []> input_159_pad_type_0 = const()[name = tensor<string, []>("input_159_pad_type_0"), val = tensor<string, []>("custom")];
            tensor<int32, [4]> input_159_pad_0 = const()[name = tensor<string, []>("input_159_pad_0"), val = tensor<int32, [4]>([1, 1, 1, 1])];
            tensor<int32, [2]> input_159_strides_0 = const()[name = tensor<string, []>("input_159_strides_0"), val = tensor<int32, [2]>([1, 1])];
            tensor<int32, [2]> input_159_dilations_0 = const()[name = tensor<string, []>("input_159_dilations_0"), val = tensor<int32, [2]>([1, 1])];
            tensor<int32, []> input_159_groups_0 = const()[name = tensor<string, []>("input_159_groups_0"), val = tensor<int32, []>(1)];
            tensor<fp16, [32, 64, 3, 3]> model_model_13_m_0_cv1_conv_weight_to_fp16 = const()[name = tensor<string, []>("model_model_13_m_0_cv1_conv_weight_to_fp16"), val = tensor<fp16, [32, 64, 3, 3]>(BLOBFILE(path = tensor<string, []>("@model_path/weights/weight.bin"), offset = tensor<uint64, []>(2826496)))];
            tensor<fp16, [32]> model_model_13_m_0_cv1_conv_bias_to_fp16 = const()[name = tensor<string, []>("model_model_13_m_0_cv1_conv_bias_to_fp16"), val = tensor<fp16, [32]>(BLOBFILE(path = tensor<string, []>("@model_path/weights/weight.bin"), offset = tensor<uint64, []>(2863424)))];
            tensor<fp16, [1, 32, 40, 40]> input_159_cast_fp16 = conv(bias = model_model_13_m_0_cv1_conv_bias_to_fp16, dilations = input_159_dilations_0, groups = input_159_groups_0, pad = input_159_pad_0, pad_type = input_159_pad_type_0, strides = input_159_strides_0, weight = model_model_13_m_0_cv1_conv_weight_to_fp16, x = var_572_cast_fp16_1)[name = tensor<string, []>("input_159_cast_fp16")];
            tensor<fp16, [1, 32, 40, 40]> input_161_cast_fp16 = silu(x = input_159_cast_fp16)[name = tensor<string, []>("input_161_cast_fp16")];
            tensor<string, []> input_163_pad_type_0 = const()[name = tensor<string, []>("input_163_pad_type_0"), val = tensor<string, []>("custom")];
            tensor<int32, [4]> input_163_pad_0 = const()[name = tensor<string, []>("input_163_pad_0"), val = tensor<int32, [4]>([1, 1, 1, 1])];
            tensor<int32, [2]> input_163_strides_0 = const()[name = tensor<string, []>("input_163_strides_0"), val = tensor<int32, [2]>([1, 1])];
            tensor<int32, [2]> input_163_dilations_0 = const()[name = tensor<string, []>("input_163_dilations_0"), val = tensor<int32, [2]>([1, 1])];
            tensor<int32, []> input_163_groups_0 = const()[name = tensor<string, []>("input_163_groups_0"), val = tensor<int32, []>(1)];
            tensor<fp16, [64, 32, 3, 3]> model_model_13_m_0_cv2_conv_weight_to_fp16 = const()[name = tensor<string, []>("model_model_13_m_0_cv2_conv_weight_to_fp16"), val = tensor<fp16, [64, 32, 3, 3]>(BLOBFILE(path = tensor<string, []>("@model_path/weights/weight.bin"), offset = tensor<uint64, []>(2863552)))];
            tensor<fp16, [64]> model_model_13_m_0_cv2_conv_bias_to_fp16 = const()[name = tensor<string, []>("model_model_13_m_0_cv2_conv_bias_to_fp16"), val = tensor<fp16, [64]>(BLOBFILE(path = tensor<string, []>("@model_path/weights/weight.bin"), offset = tensor<uint64, []>(2900480)))];
            tensor<fp16, [1, 64, 40, 40]> input_163_cast_fp16 = conv(bias = model_model_13_m_0_cv2_conv_bias_to_fp16, dilations = input_163_dilations_0, groups = input_163_groups_0, pad = input_163_pad_0, pad_type = input_163_pad_type_0, strides = input_163_strides_0, weight = model_model_13_m_0_cv2_conv_weight_to_fp16, x = input_161_cast_fp16)[name = tensor<string, []>("input_163_cast_fp16")];
            tensor<fp16, [1, 64, 40, 40]> var_594_cast_fp16 = silu(x = input_163_cast_fp16)[name = tensor<string, []>("op_594_cast_fp16")];
            tensor<fp16, [1, 64, 40, 40]> var_595_cast_fp16 = add(x = var_572_cast_fp16_1, y = var_594_cast_fp16)[name = tensor<string, []>("op_595_cast_fp16")];
            tensor<bool, []> input_165_interleave_0 = const()[name = tensor<string, []>("input_165_interleave_0"), val = tensor<bool, []>(false)];
            tensor<fp16, [1, 192, 40, 40]> input_165_cast_fp16 = concat(axis = var_21, interleave = input_165_interleave_0, values = (var_572_cast_fp16_0, var_572_cast_fp16_1, var_595_cast_fp16))[name = tensor<string, []>("input_165_cast_fp16")];
            tensor<string, []> input_167_pad_type_0 = const()[name = tensor<string, []>("input_167_pad_type_0"), val = tensor<string, []>("valid")];
            tensor<int32, [2]> input_167_strides_0 = const()[name = tensor<string, []>("input_167_strides_0"), val = tensor<int32, [2]>([1, 1])];
            tensor<int32, [4]> input_167_pad_0 = const()[name = tensor<string, []>("input_167_pad_0"), val = tensor<int32, [4]>([0, 0, 0, 0])];
            tensor<int32, [2]> input_167_dilations_0 = const()[name = tensor<string, []>("input_167_dilations_0"), val = tensor<int32, [2]>([1, 1])];
            tensor<int32, []> input_167_groups_0 = const()[name = tensor<string, []>("input_167_groups_0"), val = tensor<int32, []>(1)];
            tensor<fp16, [128, 192, 1, 1]> model_model_13_cv2_conv_weight_to_fp16 = const()[name = tensor<string, []>("model_model_13_cv2_conv_weight_to_fp16"), val = tensor<fp16, [128, 192, 1, 1]>(BLOBFILE(path = tensor<string, []>("@model_path/weights/weight.bin"), offset = tensor<uint64, []>(2900672)))];
            tensor<fp16, [128]> model_model_13_cv2_conv_bias_to_fp16 = const()[name = tensor<string, []>("model_model_13_cv2_conv_bias_to_fp16"), val = tensor<fp16, [128]>(BLOBFILE(path = tensor<string, []>("@model_path/weights/weight.bin"), offset = tensor<uint64, []>(2949888)))];
            tensor<fp16, [1, 128, 40, 40]> input_167_cast_fp16 = conv(bias = model_model_13_cv2_conv_bias_to_fp16, dilations = input_167_dilations_0, groups = input_167_groups_0, pad = input_167_pad_0, pad_type = input_167_pad_type_0, strides = input_167_strides_0, weight = model_model_13_cv2_conv_weight_to_fp16, x = input_165_cast_fp16)[name = tensor<string, []>("input_167_cast_fp16")];
            tensor<fp16, [1, 128, 40, 40]> input_169_cast_fp16 = silu(x = input_167_cast_fp16)[name = tensor<string, []>("input_169_cast_fp16")];
            tensor<fp32, []> var_608_scale_factor_height_0 = const()[name = tensor<string, []>("op_608_scale_factor_height_0"), val = tensor<fp32, []>(0x1p+1)];
            tensor<fp32, []> var_608_scale_factor_width_0 = const()[name = tensor<string, []>("op_608_scale_factor_width_0"), val = tensor<fp32, []>(0x1p+1)];
            tensor<fp16, [1, 128, 80, 80]> var_608_cast_fp16 = upsample_nearest_neighbor(scale_factor_height = var_608_scale_factor_height_0, scale_factor_width = var_608_scale_factor_width_0, x = input_169_cast_fp16)[name = tensor<string, []>("op_608_cast_fp16")];
            tensor<bool, []> input_171_interleave_0 = const()[name = tensor<string, []>("input_171_interleave_0"), val = tensor<bool, []>(false)];
            tensor<fp16, [1, 256, 80, 80]> input_171_cast_fp16 = concat(axis = var_21, interleave = input_171_interleave_0, values = (var_608_cast_fp16, input_43_cast_fp16))[name = tensor<string, []>("input_171_cast_fp16")];
            tensor<string, []> input_173_pad_type_0 = const()[name = tensor<string, []>("input_173_pad_type_0"), val = tensor<string, []>("valid")];
            tensor<int32, [2]> input_173_strides_0 = const()[name = tensor<string, []>("input_173_strides_0"), val = tensor<int32, [2]>([1, 1])];
            tensor<int32, [4]> input_173_pad_0 = const()[name = tensor<string, []>("input_173_pad_0"), val = tensor<int32, [4]>([0, 0, 0, 0])];
            tensor<int32, [2]> input_173_dilations_0 = const()[name = tensor<string, []>("input_173_dilations_0"), val = tensor<int32, [2]>([1, 1])];
            tensor<int32, []> input_173_groups_0 = const()[name = tensor<string, []>("input_173_groups_0"), val = tensor<int32, []>(1)];
            tensor<fp16, [64, 256, 1, 1]> model_model_16_cv1_conv_weight_to_fp16 = const()[name = tensor<string, []>("model_model_16_cv1_conv_weight_to_fp16"), val = tensor<fp16, [64, 256, 1, 1]>(BLOBFILE(path = tensor<string, []>("@model_path/weights/weight.bin"), offset = tensor<uint64, []>(2950208)))];
            tensor<fp16, [64]> model_model_16_cv1_conv_bias_to_fp16 = const()[name = tensor<string, []>("model_model_16_cv1_conv_bias_to_fp16"), val = tensor<fp16, [64]>(BLOBFILE(path = tensor<string, []>("@model_path/weights/weight.bin"), offset = tensor<uint64, []>(2983040)))];
            tensor<fp16, [1, 64, 80, 80]> input_173_cast_fp16 = conv(bias = model_model_16_cv1_conv_bias_to_fp16, dilations = input_173_dilations_0, groups = input_173_groups_0, pad = input_173_pad_0, pad_type = input_173_pad_type_0, strides = input_173_strides_0, weight = model_model_16_cv1_conv_weight_to_fp16, x = input_171_cast_fp16)[name = tensor<string, []>("input_173_cast_fp16")];
            tensor<fp16, [1, 64, 80, 80]> var_623_cast_fp16 = silu(x = input_173_cast_fp16)[name = tensor<string, []>("op_623_cast_fp16")];
            tensor<int32, [2]> var_624 = const()[name = tensor<string, []>("op_624"), val = tensor<int32, [2]>([32, 32])];
            tensor<int32, []> var_625_axis_0 = const()[name = tensor<string, []>("op_625_axis_0"), val = tensor<int32, []>(1)];
            tensor<fp16, [1, 32, 80, 80]> var_625_cast_fp16_0, tensor<fp16, [1, 32, 80, 80]> var_625_cast_fp16_1 = split(axis = var_625_axis_0, split_sizes = var_624, x = var_623_cast_fp16)[name = tensor<string, []>("op_625_cast_fp16")];
            tensor<string, []> input_177_pad_type_0 = const()[name = tensor<string, []>("input_177_pad_type_0"), val = tensor<string, []>("custom")];
            tensor<int32, [4]> input_177_pad_0 = const()[name = tensor<string, []>("input_177_pad_0"), val = tensor<int32, [4]>([1, 1, 1, 1])];
            tensor<int32, [2]> input_177_strides_0 = const()[name = tensor<string, []>("input_177_strides_0"), val = tensor<int32, [2]>([1, 1])];
            tensor<int32, [2]> input_177_dilations_0 = const()[name = tensor<string, []>("input_177_dilations_0"), val = tensor<int32, [2]>([1, 1])];
            tensor<int32, []> input_177_groups_0 = const()[name = tensor<string, []>("input_177_groups_0"), val = tensor<int32, []>(1)];
            tensor<fp16, [16, 32, 3, 3]> model_model_16_m_0_cv1_conv_weight_to_fp16 = const()[name = tensor<string, []>("model_model_16_m_0_cv1_conv_weight_to_fp16"), val = tensor<fp16, [16, 32, 3, 3]>(BLOBFILE(path = tensor<string, []>("@model_path/weights/weight.bin"), offset = tensor<uint64, []>(2983232)))];
            tensor<fp16, [16]> model_model_16_m_0_cv1_conv_bias_to_fp16 = const()[name = tensor<string, []>("model_model_16_m_0_cv1_conv_bias_to_fp16"), val = tensor<fp16, [16]>(BLOBFILE(path = tensor<string, []>("@model_path/weights/weight.bin"), offset = tensor<uint64, []>(2992512)))];
            tensor<fp16, [1, 16, 80, 80]> input_177_cast_fp16 = conv(bias = model_model_16_m_0_cv1_conv_bias_to_fp16, dilations = input_177_dilations_0, groups = input_177_groups_0, pad = input_177_pad_0, pad_type = input_177_pad_type_0, strides = input_177_strides_0, weight = model_model_16_m_0_cv1_conv_weight_to_fp16, x = var_625_cast_fp16_1)[name = tensor<string, []>("input_177_cast_fp16")];
            tensor<fp16, [1, 16, 80, 80]> input_179_cast_fp16 = silu(x = input_177_cast_fp16)[name = tensor<string, []>("input_179_cast_fp16")];
            tensor<string, []> input_181_pad_type_0 = const()[name = tensor<string, []>("input_181_pad_type_0"), val = tensor<string, []>("custom")];
            tensor<int32, [4]> input_181_pad_0 = const()[name = tensor<string, []>("input_181_pad_0"), val = tensor<int32, [4]>([1, 1, 1, 1])];
            tensor<int32, [2]> input_181_strides_0 = const()[name = tensor<string, []>("input_181_strides_0"), val = tensor<int32, [2]>([1, 1])];
            tensor<int32, [2]> input_181_dilations_0 = const()[name = tensor<string, []>("input_181_dilations_0"), val = tensor<int32, [2]>([1, 1])];
            tensor<int32, []> input_181_groups_0 = const()[name = tensor<string, []>("input_181_groups_0"), val = tensor<int32, []>(1)];
            tensor<fp16, [32, 16, 3, 3]> model_model_16_m_0_cv2_conv_weight_to_fp16 = const()[name = tensor<string, []>("model_model_16_m_0_cv2_conv_weight_to_fp16"), val = tensor<fp16, [32, 16, 3, 3]>(BLOBFILE(path = tensor<string, []>("@model_path/weights/weight.bin"), offset = tensor<uint64, []>(2992640)))];
            tensor<fp16, [32]> model_model_16_m_0_cv2_conv_bias_to_fp16 = const()[name = tensor<string, []>("model_model_16_m_0_cv2_conv_bias_to_fp16"), val = tensor<fp16, [32]>(BLOBFILE(path = tensor<string, []>("@model_path/weights/weight.bin"), offset = tensor<uint64, []>(3001920)))];
            tensor<fp16, [1, 32, 80, 80]> input_181_cast_fp16 = conv(bias = model_model_16_m_0_cv2_conv_bias_to_fp16, dilations = input_181_dilations_0, groups = input_181_groups_0, pad = input_181_pad_0, pad_type = input_181_pad_type_0, strides = input_181_strides_0, weight = model_model_16_m_0_cv2_conv_weight_to_fp16, x = input_179_cast_fp16)[name = tensor<string, []>("input_181_cast_fp16")];
            tensor<fp16, [1, 32, 80, 80]> var_647_cast_fp16 = silu(x = input_181_cast_fp16)[name = tensor<string, []>("op_647_cast_fp16")];
            tensor<fp16, [1, 32, 80, 80]> var_648_cast_fp16 = add(x = var_625_cast_fp16_1, y = var_647_cast_fp16)[name = tensor<string, []>("op_648_cast_fp16")];
            tensor<bool, []> input_183_interleave_0 = const()[name = tensor<string, []>("input_183_interleave_0"), val = tensor<bool, []>(false)];
            tensor<fp16, [1, 96, 80, 80]> input_183_cast_fp16 = concat(axis = var_21, interleave = input_183_interleave_0, values = (var_625_cast_fp16_0, var_625_cast_fp16_1, var_648_cast_fp16))[name = tensor<string, []>("input_183_cast_fp16")];
            tensor<string, []> input_185_pad_type_0 = const()[name = tensor<string, []>("input_185_pad_type_0"), val = tensor<string, []>("valid")];
            tensor<int32, [2]> input_185_strides_0 = const()[name = tensor<string, []>("input_185_strides_0"), val = tensor<int32, [2]>([1, 1])];
            tensor<int32, [4]> input_185_pad_0 = const()[name = tensor<string, []>("input_185_pad_0"), val = tensor<int32, [4]>([0, 0, 0, 0])];
            tensor<int32, [2]> input_185_dilations_0 = const()[name = tensor<string, []>("input_185_dilations_0"), val = tensor<int32, [2]>([1, 1])];
            tensor<int32, []> input_185_groups_0 = const()[name = tensor<string, []>("input_185_groups_0"), val = tensor<int32, []>(1)];
            tensor<fp16, [64, 96, 1, 1]> model_model_16_cv2_conv_weight_to_fp16 = const()[name = tensor<string, []>("model_model_16_cv2_conv_weight_to_fp16"), val = tensor<fp16, [64, 96, 1, 1]>(BLOBFILE(path = tensor<string, []>("@model_path/weights/weight.bin"), offset = tensor<uint64, []>(3002048)))];
            tensor<fp16, [64]> model_model_16_cv2_conv_bias_to_fp16 = const()[name = tensor<string, []>("model_model_16_cv2_conv_bias_to_fp16"), val = tensor<fp16, [64]>(BLOBFILE(path = tensor<string, []>("@model_path/weights/weight.bin"), offset = tensor<uint64, []>(3014400)))];
            tensor<fp16, [1, 64, 80, 80]> input_185_cast_fp16 = conv(bias = model_model_16_cv2_conv_bias_to_fp16, dilations = input_185_dilations_0, groups = input_185_groups_0, pad = input_185_pad_0, pad_type = input_185_pad_type_0, strides = input_185_strides_0, weight = model_model_16_cv2_conv_weight_to_fp16, x = input_183_cast_fp16)[name = tensor<string, []>("input_185_cast_fp16")];
            tensor<fp16, [1, 64, 80, 80]> input_187_cast_fp16 = silu(x = input_185_cast_fp16)[name = tensor<string, []>("input_187_cast_fp16")];
            tensor<string, []> input_189_pad_type_0 = const()[name = tensor<string, []>("input_189_pad_type_0"), val = tensor<string, []>("custom")];
            tensor<int32, [4]> input_189_pad_0 = const()[name = tensor<string, []>("input_189_pad_0"), val = tensor<int32, [4]>([1, 1, 1, 1])];
            tensor<int32, [2]> input_189_strides_0 = const()[name = tensor<string, []>("input_189_strides_0"), val = tensor<int32, [2]>([2, 2])];
            tensor<int32, [2]> input_189_dilations_0 = const()[name = tensor<string, []>("input_189_dilations_0"), val = tensor<int32, [2]>([1, 1])];
            tensor<int32, []> input_189_groups_0 = const()[name = tensor<string, []>("input_189_groups_0"), val = tensor<int32, []>(1)];
            tensor<fp16, [64, 64, 3, 3]> model_model_17_conv_weight_to_fp16 = const()[name = tensor<string, []>("model_model_17_conv_weight_to_fp16"), val = tensor<fp16, [64, 64, 3, 3]>(BLOBFILE(path = tensor<string, []>("@model_path/weights/weight.bin"), offset = tensor<uint64, []>(3014592)))];
            tensor<fp16, [64]> model_model_17_conv_bias_to_fp16 = const()[name = tensor<string, []>("model_model_17_conv_bias_to_fp16"), val = tensor<fp16, [64]>(BLOBFILE(path = tensor<string, []>("@model_path/weights/weight.bin"), offset = tensor<uint64, []>(3088384)))];
            tensor<fp16, [1, 64, 40, 40]> input_189_cast_fp16 = conv(bias = model_model_17_conv_bias_to_fp16, dilations = input_189_dilations_0, groups = input_189_groups_0, pad = input_189_pad_0, pad_type = input_189_pad_type_0, strides = input_189_strides_0, weight = model_model_17_conv_weight_to_fp16, x = input_187_cast_fp16)[name = tensor<string, []>("input_189_cast_fp16")];
            tensor<fp16, [1, 64, 40, 40]> var_668_cast_fp16 = silu(x = input_189_cast_fp16)[name = tensor<string, []>("op_668_cast_fp16")];
            tensor<bool, []> input_191_interleave_0 = const()[name = tensor<string, []>("input_191_interleave_0"), val = tensor<bool, []>(false)];
            tensor<fp16, [1, 192, 40, 40]> input_191_cast_fp16 = concat(axis = var_21, interleave = input_191_interleave_0, values = (var_668_cast_fp16, input_169_cast_fp16))[name = tensor<string, []>("input_191_cast_fp16")];
            tensor<string, []> input_193_pad_type_0 = const()[name = tensor<string, []>("input_193_pad_type_0"), val = tensor<string, []>("valid")];
            tensor<int32, [2]> input_193_strides_0 = const()[name = tensor<string, []>("input_193_strides_0"), val = tensor<int32, [2]>([1, 1])];
            tensor<int32, [4]> input_193_pad_0 = const()[name = tensor<string, []>("input_193_pad_0"), val = tensor<int32, [4]>([0, 0, 0, 0])];
            tensor<int32, [2]> input_193_dilations_0 = const()[name = tensor<string, []>("input_193_dilations_0"), val = tensor<int32, [2]>([1, 1])];
            tensor<int32, []> input_193_groups_0 = const()[name = tensor<string, []>("input_193_groups_0"), val = tensor<int32, []>(1)];
            tensor<fp16, [128, 192, 1, 1]> model_model_19_cv1_conv_weight_to_fp16 = const()[name = tensor<string, []>("model_model_19_cv1_conv_weight_to_fp16"), val = tensor<fp16, [128, 192, 1, 1]>(BLOBFILE(path = tensor<string, []>("@model_path/weights/weight.bin"), offset = tensor<uint64, []>(3088576)))];
            tensor<fp16, [128]> model_model_19_cv1_conv_bias_to_fp16 = const()[name = tensor<string, []>("model_model_19_cv1_conv_bias_to_fp16"), val = tensor<fp16, [128]>(BLOBFILE(path = tensor<string, []>("@model_path/weights/weight.bin"), offset = tensor<uint64, []>(3137792)))];
            tensor<fp16, [1, 128, 40, 40]> input_193_cast_fp16 = conv(bias = model_model_19_cv1_conv_bias_to_fp16, dilations = input_193_dilations_0, groups = input_193_groups_0, pad = input_193_pad_0, pad_type = input_193_pad_type_0, strides = input_193_strides_0, weight = model_model_19_cv1_conv_weight_to_fp16, x = input_191_cast_fp16)[name = tensor<string, []>("input_193_cast_fp16")];
            tensor<fp16, [1, 128, 40, 40]> var_683_cast_fp16 = silu(x = input_193_cast_fp16)[name = tensor<string, []>("op_683_cast_fp16")];
            tensor<int32, [2]> var_684 = const()[name = tensor<string, []>("op_684"), val = tensor<int32, [2]>([64, 64])];
            tensor<int32, []> var_685_axis_0 = const()[name = tensor<string, []>("op_685_axis_0"), val = tensor<int32, []>(1)];
            tensor<fp16, [1, 64, 40, 40]> var_685_cast_fp16_0, tensor<fp16, [1, 64, 40, 40]> var_685_cast_fp16_1 = split(axis = var_685_axis_0, split_sizes = var_684, x = var_683_cast_fp16)[name = tensor<string, []>("op_685_cast_fp16")];
            tensor<string, []> input_197_pad_type_0 = const()[name = tensor<string, []>("input_197_pad_type_0"), val = tensor<string, []>("custom")];
            tensor<int32, [4]> input_197_pad_0 = const()[name = tensor<string, []>("input_197_pad_0"), val = tensor<int32, [4]>([1, 1, 1, 1])];
            tensor<int32, [2]> input_197_strides_0 = const()[name = tensor<string, []>("input_197_strides_0"), val = tensor<int32, [2]>([1, 1])];
            tensor<int32, [2]> input_197_dilations_0 = const()[name = tensor<string, []>("input_197_dilations_0"), val = tensor<int32, [2]>([1, 1])];
            tensor<int32, []> input_197_groups_0 = const()[name = tensor<string, []>("input_197_groups_0"), val = tensor<int32, []>(1)];
            tensor<fp16, [32, 64, 3, 3]> model_model_19_m_0_cv1_conv_weight_to_fp16 = const()[name = tensor<string, []>("model_model_19_m_0_cv1_conv_weight_to_fp16"), val = tensor<fp16, [32, 64, 3, 3]>(BLOBFILE(path = tensor<string, []>("@model_path/weights/weight.bin"), offset = tensor<uint64, []>(3138112)))];
            tensor<fp16, [32]> model_model_19_m_0_cv1_conv_bias_to_fp16 = const()[name = tensor<string, []>("model_model_19_m_0_cv1_conv_bias_to_fp16"), val = tensor<fp16, [32]>(BLOBFILE(path = tensor<string, []>("@model_path/weights/weight.bin"), offset = tensor<uint64, []>(3175040)))];
            tensor<fp16, [1, 32, 40, 40]> input_197_cast_fp16 = conv(bias = model_model_19_m_0_cv1_conv_bias_to_fp16, dilations = input_197_dilations_0, groups = input_197_groups_0, pad = input_197_pad_0, pad_type = input_197_pad_type_0, strides = input_197_strides_0, weight = model_model_19_m_0_cv1_conv_weight_to_fp16, x = var_685_cast_fp16_1)[name = tensor<string, []>("input_197_cast_fp16")];
            tensor<fp16, [1, 32, 40, 40]> input_199_cast_fp16 = silu(x = input_197_cast_fp16)[name = tensor<string, []>("input_199_cast_fp16")];
            tensor<string, []> input_201_pad_type_0 = const()[name = tensor<string, []>("input_201_pad_type_0"), val = tensor<string, []>("custom")];
            tensor<int32, [4]> input_201_pad_0 = const()[name = tensor<string, []>("input_201_pad_0"), val = tensor<int32, [4]>([1, 1, 1, 1])];
            tensor<int32, [2]> input_201_strides_0 = const()[name = tensor<string, []>("input_201_strides_0"), val = tensor<int32, [2]>([1, 1])];
            tensor<int32, [2]> input_201_dilations_0 = const()[name = tensor<string, []>("input_201_dilations_0"), val = tensor<int32, [2]>([1, 1])];
            tensor<int32, []> input_201_groups_0 = const()[name = tensor<string, []>("input_201_groups_0"), val = tensor<int32, []>(1)];
            tensor<fp16, [64, 32, 3, 3]> model_model_19_m_0_cv2_conv_weight_to_fp16 = const()[name = tensor<string, []>("model_model_19_m_0_cv2_conv_weight_to_fp16"), val = tensor<fp16, [64, 32, 3, 3]>(BLOBFILE(path = tensor<string, []>("@model_path/weights/weight.bin"), offset = tensor<uint64, []>(3175168)))];
            tensor<fp16, [64]> model_model_19_m_0_cv2_conv_bias_to_fp16 = const()[name = tensor<string, []>("model_model_19_m_0_cv2_conv_bias_to_fp16"), val = tensor<fp16, [64]>(BLOBFILE(path = tensor<string, []>("@model_path/weights/weight.bin"), offset = tensor<uint64, []>(3212096)))];
            tensor<fp16, [1, 64, 40, 40]> input_201_cast_fp16 = conv(bias = model_model_19_m_0_cv2_conv_bias_to_fp16, dilations = input_201_dilations_0, groups = input_201_groups_0, pad = input_201_pad_0, pad_type = input_201_pad_type_0, strides = input_201_strides_0, weight = model_model_19_m_0_cv2_conv_weight_to_fp16, x = input_199_cast_fp16)[name = tensor<string, []>("input_201_cast_fp16")];
            tensor<fp16, [1, 64, 40, 40]> var_707_cast_fp16 = silu(x = input_201_cast_fp16)[name = tensor<string, []>("op_707_cast_fp16")];
            tensor<fp16, [1, 64, 40, 40]> var_708_cast_fp16 = add(x = var_685_cast_fp16_1, y = var_707_cast_fp16)[name = tensor<string, []>("op_708_cast_fp16")];
            tensor<bool, []> input_203_interleave_0 = const()[name = tensor<string, []>("input_203_interleave_0"), val = tensor<bool, []>(false)];
            tensor<fp16, [1, 192, 40, 40]> input_203_cast_fp16 = concat(axis = var_21, interleave = input_203_interleave_0, values = (var_685_cast_fp16_0, var_685_cast_fp16_1, var_708_cast_fp16))[name = tensor<string, []>("input_203_cast_fp16")];
            tensor<string, []> input_205_pad_type_0 = const()[name = tensor<string, []>("input_205_pad_type_0"), val = tensor<string, []>("valid")];
            tensor<int32, [2]> input_205_strides_0 = const()[name = tensor<string, []>("input_205_strides_0"), val = tensor<int32, [2]>([1, 1])];
            tensor<int32, [4]> input_205_pad_0 = const()[name = tensor<string, []>("input_205_pad_0"), val = tensor<int32, [4]>([0, 0, 0, 0])];
            tensor<int32, [2]> input_205_dilations_0 = const()[name = tensor<string, []>("input_205_dilations_0"), val = tensor<int32, [2]>([1, 1])];
            tensor<int32, []> input_205_groups_0 = const()[name = tensor<string, []>("input_205_groups_0"), val = tensor<int32, []>(1)];
            tensor<fp16, [128, 192, 1, 1]> model_model_19_cv2_conv_weight_to_fp16 = const()[name = tensor<string, []>("model_model_19_cv2_conv_weight_to_fp16"), val = tensor<fp16, [128, 192, 1, 1]>(BLOBFILE(path = tensor<string, []>("@model_path/weights/weight.bin"), offset = tensor<uint64, []>(3212288)))];
            tensor<fp16, [128]> model_model_19_cv2_conv_bias_to_fp16 = const()[name = tensor<string, []>("model_model_19_cv2_conv_bias_to_fp16"), val = tensor<fp16, [128]>(BLOBFILE(path = tensor<string, []>("@model_path/weights/weight.bin"), offset = tensor<uint64, []>(3261504)))];
            tensor<fp16, [1, 128, 40, 40]> input_205_cast_fp16 = conv(bias = model_model_19_cv2_conv_bias_to_fp16, dilations = input_205_dilations_0, groups = input_205_groups_0, pad = input_205_pad_0, pad_type = input_205_pad_type_0, strides = input_205_strides_0, weight = model_model_19_cv2_conv_weight_to_fp16, x = input_203_cast_fp16)[name = tensor<string, []>("input_205_cast_fp16")];
            tensor<fp16, [1, 128, 40, 40]> input_207_cast_fp16 = silu(x = input_205_cast_fp16)[name = tensor<string, []>("input_207_cast_fp16")];
            tensor<string, []> input_209_pad_type_0 = const()[name = tensor<string, []>("input_209_pad_type_0"), val = tensor<string, []>("custom")];
            tensor<int32, [4]> input_209_pad_0 = const()[name = tensor<string, []>("input_209_pad_0"), val = tensor<int32, [4]>([1, 1, 1, 1])];
            tensor<int32, [2]> input_209_strides_0 = const()[name = tensor<string, []>("input_209_strides_0"), val = tensor<int32, [2]>([2, 2])];
            tensor<int32, [2]> input_209_dilations_0 = const()[name = tensor<string, []>("input_209_dilations_0"), val = tensor<int32, [2]>([1, 1])];
            tensor<int32, []> input_209_groups_0 = const()[name = tensor<string, []>("input_209_groups_0"), val = tensor<int32, []>(1)];
            tensor<fp16, [128, 128, 3, 3]> model_model_20_conv_weight_to_fp16 = const()[name = tensor<string, []>("model_model_20_conv_weight_to_fp16"), val = tensor<fp16, [128, 128, 3, 3]>(BLOBFILE(path = tensor<string, []>("@model_path/weights/weight.bin"), offset = tensor<uint64, []>(3261824)))];
            tensor<fp16, [128]> model_model_20_conv_bias_to_fp16 = const()[name = tensor<string, []>("model_model_20_conv_bias_to_fp16"), val = tensor<fp16, [128]>(BLOBFILE(path = tensor<string, []>("@model_path/weights/weight.bin"), offset = tensor<uint64, []>(3556800)))];
            tensor<fp16, [1, 128, 20, 20]> input_209_cast_fp16 = conv(bias = model_model_20_conv_bias_to_fp16, dilations = input_209_dilations_0, groups = input_209_groups_0, pad = input_209_pad_0, pad_type = input_209_pad_type_0, strides = input_209_strides_0, weight = model_model_20_conv_weight_to_fp16, x = input_207_cast_fp16)[name = tensor<string, []>("input_209_cast_fp16")];
            tensor<fp16, [1, 128, 20, 20]> var_728_cast_fp16 = silu(x = input_209_cast_fp16)[name = tensor<string, []>("op_728_cast_fp16")];
            tensor<bool, []> input_211_interleave_0 = const()[name = tensor<string, []>("input_211_interleave_0"), val = tensor<bool, []>(false)];
            tensor<fp16, [1, 384, 20, 20]> input_211_cast_fp16 = concat(axis = var_21, interleave = input_211_interleave_0, values = (var_728_cast_fp16, input_151_cast_fp16))[name = tensor<string, []>("input_211_cast_fp16")];
            tensor<string, []> input_213_pad_type_0 = const()[name = tensor<string, []>("input_213_pad_type_0"), val = tensor<string, []>("valid")];
            tensor<int32, [2]> input_213_strides_0 = const()[name = tensor<string, []>("input_213_strides_0"), val = tensor<int32, [2]>([1, 1])];
            tensor<int32, [4]> input_213_pad_0 = const()[name = tensor<string, []>("input_213_pad_0"), val = tensor<int32, [4]>([0, 0, 0, 0])];
            tensor<int32, [2]> input_213_dilations_0 = const()[name = tensor<string, []>("input_213_dilations_0"), val = tensor<int32, [2]>([1, 1])];
            tensor<int32, []> input_213_groups_0 = const()[name = tensor<string, []>("input_213_groups_0"), val = tensor<int32, []>(1)];
            tensor<fp16, [256, 384, 1, 1]> model_model_22_cv1_conv_weight_to_fp16 = const()[name = tensor<string, []>("model_model_22_cv1_conv_weight_to_fp16"), val = tensor<fp16, [256, 384, 1, 1]>(BLOBFILE(path = tensor<string, []>("@model_path/weights/weight.bin"), offset = tensor<uint64, []>(3557120)))];
            tensor<fp16, [256]> model_model_22_cv1_conv_bias_to_fp16 = const()[name = tensor<string, []>("model_model_22_cv1_conv_bias_to_fp16"), val = tensor<fp16, [256]>(BLOBFILE(path = tensor<string, []>("@model_path/weights/weight.bin"), offset = tensor<uint64, []>(3753792)))];
            tensor<fp16, [1, 256, 20, 20]> input_213_cast_fp16 = conv(bias = model_model_22_cv1_conv_bias_to_fp16, dilations = input_213_dilations_0, groups = input_213_groups_0, pad = input_213_pad_0, pad_type = input_213_pad_type_0, strides = input_213_strides_0, weight = model_model_22_cv1_conv_weight_to_fp16, x = input_211_cast_fp16)[name = tensor<string, []>("input_213_cast_fp16")];
            tensor<fp16, [1, 256, 20, 20]> var_743_cast_fp16 = silu(x = input_213_cast_fp16)[name = tensor<string, []>("op_743_cast_fp16")];
            tensor<int32, [2]> var_744 = const()[name = tensor<string, []>("op_744"), val = tensor<int32, [2]>([128, 128])];
            tensor<int32, []> var_745_axis_0 = const()[name = tensor<string, []>("op_745_axis_0"), val = tensor<int32, []>(1)];
            tensor<fp16, [1, 128, 20, 20]> var_745_cast_fp16_0, tensor<fp16, [1, 128, 20, 20]> var_745_cast_fp16_1 = split(axis = var_745_axis_0, split_sizes = var_744, x = var_743_cast_fp16)[name = tensor<string, []>("op_745_cast_fp16")];
            tensor<string, []> input_217_pad_type_0 = const()[name = tensor<string, []>("input_217_pad_type_0"), val = tensor<string, []>("valid")];
            tensor<int32, [2]> input_217_strides_0 = const()[name = tensor<string, []>("input_217_strides_0"), val = tensor<int32, [2]>([1, 1])];
            tensor<int32, [4]> input_217_pad_0 = const()[name = tensor<string, []>("input_217_pad_0"), val = tensor<int32, [4]>([0, 0, 0, 0])];
            tensor<int32, [2]> input_217_dilations_0 = const()[name = tensor<string, []>("input_217_dilations_0"), val = tensor<int32, [2]>([1, 1])];
            tensor<int32, []> input_217_groups_0 = const()[name = tensor<string, []>("input_217_groups_0"), val = tensor<int32, []>(1)];
            tensor<fp16, [64, 128, 1, 1]> model_model_22_m_0_cv1_conv_weight_to_fp16 = const()[name = tensor<string, []>("model_model_22_m_0_cv1_conv_weight_to_fp16"), val = tensor<fp16, [64, 128, 1, 1]>(BLOBFILE(path = tensor<string, []>("@model_path/weights/weight.bin"), offset = tensor<uint64, []>(3754368)))];
            tensor<fp16, [64]> model_model_22_m_0_cv1_conv_bias_to_fp16 = const()[name = tensor<string, []>("model_model_22_m_0_cv1_conv_bias_to_fp16"), val = tensor<fp16, [64]>(BLOBFILE(path = tensor<string, []>("@model_path/weights/weight.bin"), offset = tensor<uint64, []>(3770816)))];
            tensor<fp16, [1, 64, 20, 20]> input_217_cast_fp16 = conv(bias = model_model_22_m_0_cv1_conv_bias_to_fp16, dilations = input_217_dilations_0, groups = input_217_groups_0, pad = input_217_pad_0, pad_type = input_217_pad_type_0, strides = input_217_strides_0, weight = model_model_22_m_0_cv1_conv_weight_to_fp16, x = var_745_cast_fp16_1)[name = tensor<string, []>("input_217_cast_fp16")];
            tensor<fp16, [1, 64, 20, 20]> input_219_cast_fp16 = silu(x = input_217_cast_fp16)[name = tensor<string, []>("input_219_cast_fp16")];
            tensor<string, []> input_221_pad_type_0 = const()[name = tensor<string, []>("input_221_pad_type_0"), val = tensor<string, []>("custom")];
            tensor<int32, [4]> input_221_pad_0 = const()[name = tensor<string, []>("input_221_pad_0"), val = tensor<int32, [4]>([1, 1, 1, 1])];
            tensor<int32, [2]> input_221_strides_0 = const()[name = tensor<string, []>("input_221_strides_0"), val = tensor<int32, [2]>([1, 1])];
            tensor<int32, [2]> input_221_dilations_0 = const()[name = tensor<string, []>("input_221_dilations_0"), val = tensor<int32, [2]>([1, 1])];
            tensor<int32, []> input_221_groups_0 = const()[name = tensor<string, []>("input_221_groups_0"), val = tensor<int32, []>(1)];
            tensor<fp16, [64, 64, 3, 3]> model_model_22_m_0_m_0_cv1_conv_weight_to_fp16 = const()[name = tensor<string, []>("model_model_22_m_0_m_0_cv1_conv_weight_to_fp16"), val = tensor<fp16, [64, 64, 3, 3]>(BLOBFILE(path = tensor<string, []>("@model_path/weights/weight.bin"), offset = tensor<uint64, []>(3771008)))];
            tensor<fp16, [64]> model_model_22_m_0_m_0_cv1_conv_bias_to_fp16 = const()[name = tensor<string, []>("model_model_22_m_0_m_0_cv1_conv_bias_to_fp16"), val = tensor<fp16, [64]>(BLOBFILE(path = tensor<string, []>("@model_path/weights/weight.bin"), offset = tensor<uint64, []>(3844800)))];
            tensor<fp16, [1, 64, 20, 20]> input_221_cast_fp16 = conv(bias = model_model_22_m_0_m_0_cv1_conv_bias_to_fp16, dilations = input_221_dilations_0, groups = input_221_groups_0, pad = input_221_pad_0, pad_type = input_221_pad_type_0, strides = input_221_strides_0, weight = model_model_22_m_0_m_0_cv1_conv_weight_to_fp16, x = input_219_cast_fp16)[name = tensor<string, []>("input_221_cast_fp16")];
            tensor<fp16, [1, 64, 20, 20]> input_223_cast_fp16 = silu(x = input_221_cast_fp16)[name = tensor<string, []>("input_223_cast_fp16")];
            tensor<string, []> input_225_pad_type_0 = const()[name = tensor<string, []>("input_225_pad_type_0"), val = tensor<string, []>("custom")];
            tensor<int32, [4]> input_225_pad_0 = const()[name = tensor<string, []>("input_225_pad_0"), val = tensor<int32, [4]>([1, 1, 1, 1])];
            tensor<int32, [2]> input_225_strides_0 = const()[name = tensor<string, []>("input_225_strides_0"), val = tensor<int32, [2]>([1, 1])];
            tensor<int32, [2]> input_225_dilations_0 = const()[name = tensor<string, []>("input_225_dilations_0"), val = tensor<int32, [2]>([1, 1])];
            tensor<int32, []> input_225_groups_0 = const()[name = tensor<string, []>("input_225_groups_0"), val = tensor<int32, []>(1)];
            tensor<fp16, [64, 64, 3, 3]> model_model_22_m_0_m_0_cv2_conv_weight_to_fp16 = const()[name = tensor<string, []>("model_model_22_m_0_m_0_cv2_conv_weight_to_fp16"), val = tensor<fp16, [64, 64, 3, 3]>(BLOBFILE(path = tensor<string, []>("@model_path/weights/weight.bin"), offset = tensor<uint64, []>(3844992)))];
            tensor<fp16, [64]> model_model_22_m_0_m_0_cv2_conv_bias_to_fp16 = const()[name = tensor<string, []>("model_model_22_m_0_m_0_cv2_conv_bias_to_fp16"), val = tensor<fp16, [64]>(BLOBFILE(path = tensor<string, []>("@model_path/weights/weight.bin"), offset = tensor<uint64, []>(3918784)))];
            tensor<fp16, [1, 64, 20, 20]> input_225_cast_fp16 = conv(bias = model_model_22_m_0_m_0_cv2_conv_bias_to_fp16, dilations = input_225_dilations_0, groups = input_225_groups_0, pad = input_225_pad_0, pad_type = input_225_pad_type_0, strides = input_225_strides_0, weight = model_model_22_m_0_m_0_cv2_conv_weight_to_fp16, x = input_223_cast_fp16)[name = tensor<string, []>("input_225_cast_fp16")];
            tensor<fp16, [1, 64, 20, 20]> var_782_cast_fp16 = silu(x = input_225_cast_fp16)[name = tensor<string, []>("op_782_cast_fp16")];
            tensor<fp16, [1, 64, 20, 20]> input_227_cast_fp16 = add(x = input_219_cast_fp16, y = var_782_cast_fp16)[name = tensor<string, []>("input_227_cast_fp16")];
            tensor<string, []> input_229_pad_type_0 = const()[name = tensor<string, []>("input_229_pad_type_0"), val = tensor<string, []>("custom")];
            tensor<int32, [4]> input_229_pad_0 = const()[name = tensor<string, []>("input_229_pad_0"), val = tensor<int32, [4]>([1, 1, 1, 1])];
            tensor<int32, [2]> input_229_strides_0 = const()[name = tensor<string, []>("input_229_strides_0"), val = tensor<int32, [2]>([1, 1])];
            tensor<int32, [2]> input_229_dilations_0 = const()[name = tensor<string, []>("input_229_dilations_0"), val = tensor<int32, [2]>([1, 1])];
            tensor<int32, []> input_229_groups_0 = const()[name = tensor<string, []>("input_229_groups_0"), val = tensor<int32, []>(1)];
            tensor<fp16, [64, 64, 3, 3]> model_model_22_m_0_m_1_cv1_conv_weight_to_fp16 = const()[name = tensor<string, []>("model_model_22_m_0_m_1_cv1_conv_weight_to_fp16"), val = tensor<fp16, [64, 64, 3, 3]>(BLOBFILE(path = tensor<string, []>("@model_path/weights/weight.bin"), offset = tensor<uint64, []>(3918976)))];
            tensor<fp16, [64]> model_model_22_m_0_m_1_cv1_conv_bias_to_fp16 = const()[name = tensor<string, []>("model_model_22_m_0_m_1_cv1_conv_bias_to_fp16"), val = tensor<fp16, [64]>(BLOBFILE(path = tensor<string, []>("@model_path/weights/weight.bin"), offset = tensor<uint64, []>(3992768)))];
            tensor<fp16, [1, 64, 20, 20]> input_229_cast_fp16 = conv(bias = model_model_22_m_0_m_1_cv1_conv_bias_to_fp16, dilations = input_229_dilations_0, groups = input_229_groups_0, pad = input_229_pad_0, pad_type = input_229_pad_type_0, strides = input_229_strides_0, weight = model_model_22_m_0_m_1_cv1_conv_weight_to_fp16, x = input_227_cast_fp16)[name = tensor<string, []>("input_229_cast_fp16")];
            tensor<fp16, [1, 64, 20, 20]> input_231_cast_fp16 = silu(x = input_229_cast_fp16)[name = tensor<string, []>("input_231_cast_fp16")];
            tensor<string, []> input_233_pad_type_0 = const()[name = tensor<string, []>("input_233_pad_type_0"), val = tensor<string, []>("custom")];
            tensor<int32, [4]> input_233_pad_0 = const()[name = tensor<string, []>("input_233_pad_0"), val = tensor<int32, [4]>([1, 1, 1, 1])];
            tensor<int32, [2]> input_233_strides_0 = const()[name = tensor<string, []>("input_233_strides_0"), val = tensor<int32, [2]>([1, 1])];
            tensor<int32, [2]> input_233_dilations_0 = const()[name = tensor<string, []>("input_233_dilations_0"), val = tensor<int32, [2]>([1, 1])];
            tensor<int32, []> input_233_groups_0 = const()[name = tensor<string, []>("input_233_groups_0"), val = tensor<int32, []>(1)];
            tensor<fp16, [64, 64, 3, 3]> model_model_22_m_0_m_1_cv2_conv_weight_to_fp16 = const()[name = tensor<string, []>("model_model_22_m_0_m_1_cv2_conv_weight_to_fp16"), val = tensor<fp16, [64, 64, 3, 3]>(BLOBFILE(path = tensor<string, []>("@model_path/weights/weight.bin"), offset = tensor<uint64, []>(3992960)))];
            tensor<fp16, [64]> model_model_22_m_0_m_1_cv2_conv_bias_to_fp16 = const()[name = tensor<string, []>("model_model_22_m_0_m_1_cv2_conv_bias_to_fp16"), val = tensor<fp16, [64]>(BLOBFILE(path = tensor<string, []>("@model_path/weights/weight.bin"), offset = tensor<uint64, []>(4066752)))];
            tensor<fp16, [1, 64, 20, 20]> input_233_cast_fp16 = conv(bias = model_model_22_m_0_m_1_cv2_conv_bias_to_fp16, dilations = input_233_dilations_0, groups = input_233_groups_0, pad = input_233_pad_0, pad_type = input_233_pad_type_0, strides = input_233_strides_0, weight = model_model_22_m_0_m_1_cv2_conv_weight_to_fp16, x = input_231_cast_fp16)[name = tensor<string, []>("input_233_cast_fp16")];
            tensor<fp16, [1, 64, 20, 20]> var_803_cast_fp16 = silu(x = input_233_cast_fp16)[name = tensor<string, []>("op_803_cast_fp16")];
            tensor<fp16, [1, 64, 20, 20]> var_804_cast_fp16 = add(x = input_227_cast_fp16, y = var_803_cast_fp16)[name = tensor<string, []>("op_804_cast_fp16")];
            tensor<string, []> input_235_pad_type_0 = const()[name = tensor<string, []>("input_235_pad_type_0"), val = tensor<string, []>("valid")];
            tensor<int32, [2]> input_235_strides_0 = const()[name = tensor<string, []>("input_235_strides_0"), val = tensor<int32, [2]>([1, 1])];
            tensor<int32, [4]> input_235_pad_0 = const()[name = tensor<string, []>("input_235_pad_0"), val = tensor<int32, [4]>([0, 0, 0, 0])];
            tensor<int32, [2]> input_235_dilations_0 = const()[name = tensor<string, []>("input_235_dilations_0"), val = tensor<int32, [2]>([1, 1])];
            tensor<int32, []> input_235_groups_0 = const()[name = tensor<string, []>("input_235_groups_0"), val = tensor<int32, []>(1)];
            tensor<fp16, [64, 128, 1, 1]> model_model_22_m_0_cv2_conv_weight_to_fp16 = const()[name = tensor<string, []>("model_model_22_m_0_cv2_conv_weight_to_fp16"), val = tensor<fp16, [64, 128, 1, 1]>(BLOBFILE(path = tensor<string, []>("@model_path/weights/weight.bin"), offset = tensor<uint64, []>(4066944)))];
            tensor<fp16, [64]> model_model_22_m_0_cv2_conv_bias_to_fp16 = const()[name = tensor<string, []>("model_model_22_m_0_cv2_conv_bias_to_fp16"), val = tensor<fp16, [64]>(BLOBFILE(path = tensor<string, []>("@model_path/weights/weight.bin"), offset = tensor<uint64, []>(4083392)))];
            tensor<fp16, [1, 64, 20, 20]> input_235_cast_fp16 = conv(bias = model_model_22_m_0_cv2_conv_bias_to_fp16, dilations = input_235_dilations_0, groups = input_235_groups_0, pad = input_235_pad_0, pad_type = input_235_pad_type_0, strides = input_235_strides_0, weight = model_model_22_m_0_cv2_conv_weight_to_fp16, x = var_745_cast_fp16_1)[name = tensor<string, []>("input_235_cast_fp16")];
            tensor<fp16, [1, 64, 20, 20]> var_813_cast_fp16 = silu(x = input_235_cast_fp16)[name = tensor<string, []>("op_813_cast_fp16")];
            tensor<bool, []> input_237_interleave_0 = const()[name = tensor<string, []>("input_237_interleave_0"), val = tensor<bool, []>(false)];
            tensor<fp16, [1, 128, 20, 20]> input_237_cast_fp16 = concat(axis = var_21, interleave = input_237_interleave_0, values = (var_804_cast_fp16, var_813_cast_fp16))[name = tensor<string, []>("input_237_cast_fp16")];
            tensor<string, []> input_239_pad_type_0 = const()[name = tensor<string, []>("input_239_pad_type_0"), val = tensor<string, []>("valid")];
            tensor<int32, [2]> input_239_strides_0 = const()[name = tensor<string, []>("input_239_strides_0"), val = tensor<int32, [2]>([1, 1])];
            tensor<int32, [4]> input_239_pad_0 = const()[name = tensor<string, []>("input_239_pad_0"), val = tensor<int32, [4]>([0, 0, 0, 0])];
            tensor<int32, [2]> input_239_dilations_0 = const()[name = tensor<string, []>("input_239_dilations_0"), val = tensor<int32, [2]>([1, 1])];
            tensor<int32, []> input_239_groups_0 = const()[name = tensor<string, []>("input_239_groups_0"), val = tensor<int32, []>(1)];
            tensor<fp16, [128, 128, 1, 1]> model_model_22_m_0_cv3_conv_weight_to_fp16 = const()[name = tensor<string, []>("model_model_22_m_0_cv3_conv_weight_to_fp16"), val = tensor<fp16, [128, 128, 1, 1]>(BLOBFILE(path = tensor<string, []>("@model_path/weights/weight.bin"), offset = tensor<uint64, []>(4083584)))];
            tensor<fp16, [128]> model_model_22_m_0_cv3_conv_bias_to_fp16 = const()[name = tensor<string, []>("model_model_22_m_0_cv3_conv_bias_to_fp16"), val = tensor<fp16, [128]>(BLOBFILE(path = tensor<string, []>("@model_path/weights/weight.bin"), offset = tensor<uint64, []>(4116416)))];
            tensor<fp16, [1, 128, 20, 20]> input_239_cast_fp16 = conv(bias = model_model_22_m_0_cv3_conv_bias_to_fp16, dilations = input_239_dilations_0, groups = input_239_groups_0, pad = input_239_pad_0, pad_type = input_239_pad_type_0, strides = input_239_strides_0, weight = model_model_22_m_0_cv3_conv_weight_to_fp16, x = input_237_cast_fp16)[name = tensor<string, []>("input_239_cast_fp16")];
            tensor<fp16, [1, 128, 20, 20]> var_824_cast_fp16 = silu(x = input_239_cast_fp16)[name = tensor<string, []>("op_824_cast_fp16")];
            tensor<bool, []> input_241_interleave_0 = const()[name = tensor<string, []>("input_241_interleave_0"), val = tensor<bool, []>(false)];
            tensor<fp16, [1, 384, 20, 20]> input_241_cast_fp16 = concat(axis = var_21, interleave = input_241_interleave_0, values = (var_745_cast_fp16_0, var_745_cast_fp16_1, var_824_cast_fp16))[name = tensor<string, []>("input_241_cast_fp16")];
            tensor<string, []> input_243_pad_type_0 = const()[name = tensor<string, []>("input_243_pad_type_0"), val = tensor<string, []>("valid")];
            tensor<int32, [2]> input_243_strides_0 = const()[name = tensor<string, []>("input_243_strides_0"), val = tensor<int32, [2]>([1, 1])];
            tensor<int32, [4]> input_243_pad_0 = const()[name = tensor<string, []>("input_243_pad_0"), val = tensor<int32, [4]>([0, 0, 0, 0])];
            tensor<int32, [2]> input_243_dilations_0 = const()[name = tensor<string, []>("input_243_dilations_0"), val = tensor<int32, [2]>([1, 1])];
            tensor<int32, []> input_243_groups_0 = const()[name = tensor<string, []>("input_243_groups_0"), val = tensor<int32, []>(1)];
            tensor<fp16, [256, 384, 1, 1]> model_model_22_cv2_conv_weight_to_fp16 = const()[name = tensor<string, []>("model_model_22_cv2_conv_weight_to_fp16"), val = tensor<fp16, [256, 384, 1, 1]>(BLOBFILE(path = tensor<string, []>("@model_path/weights/weight.bin"), offset = tensor<uint64, []>(4116736)))];
            tensor<fp16, [256]> model_model_22_cv2_conv_bias_to_fp16 = const()[name = tensor<string, []>("model_model_22_cv2_conv_bias_to_fp16"), val = tensor<fp16, [256]>(BLOBFILE(path = tensor<string, []>("@model_path/weights/weight.bin"), offset = tensor<uint64, []>(4313408)))];
            tensor<fp16, [1, 256, 20, 20]> input_243_cast_fp16 = conv(bias = model_model_22_cv2_conv_bias_to_fp16, dilations = input_243_dilations_0, groups = input_243_groups_0, pad = input_243_pad_0, pad_type = input_243_pad_type_0, strides = input_243_strides_0, weight = model_model_22_cv2_conv_weight_to_fp16, x = input_241_cast_fp16)[name = tensor<string, []>("input_243_cast_fp16")];
            tensor<fp16, [1, 256, 20, 20]> input_293_cast_fp16 = silu(x = input_243_cast_fp16)[name = tensor<string, []>("input_293_cast_fp16")];
            tensor<string, []> input_245_pad_type_0 = const()[name = tensor<string, []>("input_245_pad_type_0"), val = tensor<string, []>("custom")];
            tensor<int32, [4]> input_245_pad_0 = const()[name = tensor<string, []>("input_245_pad_0"), val = tensor<int32, [4]>([1, 1, 1, 1])];
            tensor<int32, [2]> input_245_strides_0 = const()[name = tensor<string, []>("input_245_strides_0"), val = tensor<int32, [2]>([1, 1])];
            tensor<int32, [2]> input_245_dilations_0 = const()[name = tensor<string, []>("input_245_dilations_0"), val = tensor<int32, [2]>([1, 1])];
            tensor<int32, []> input_245_groups_0 = const()[name = tensor<string, []>("input_245_groups_0"), val = tensor<int32, []>(1)];
            tensor<fp16, [64, 64, 3, 3]> model_model_23_cv2_0_0_conv_weight_to_fp16 = const()[name = tensor<string, []>("model_model_23_cv2_0_0_conv_weight_to_fp16"), val = tensor<fp16, [64, 64, 3, 3]>(BLOBFILE(path = tensor<string, []>("@model_path/weights/weight.bin"), offset = tensor<uint64, []>(4313984)))];
            tensor<fp16, [64]> model_model_23_cv2_0_0_conv_bias_to_fp16 = const()[name = tensor<string, []>("model_model_23_cv2_0_0_conv_bias_to_fp16"), val = tensor<fp16, [64]>(BLOBFILE(path = tensor<string, []>("@model_path/weights/weight.bin"), offset = tensor<uint64, []>(4387776)))];
            tensor<fp16, [1, 64, 80, 80]> input_245_cast_fp16 = conv(bias = model_model_23_cv2_0_0_conv_bias_to_fp16, dilations = input_245_dilations_0, groups = input_245_groups_0, pad = input_245_pad_0, pad_type = input_245_pad_type_0, strides = input_245_strides_0, weight = model_model_23_cv2_0_0_conv_weight_to_fp16, x = input_187_cast_fp16)[name = tensor<string, []>("input_245_cast_fp16")];
            tensor<fp16, [1, 64, 80, 80]> input_247_cast_fp16 = silu(x = input_245_cast_fp16)[name = tensor<string, []>("input_247_cast_fp16")];
            tensor<string, []> input_249_pad_type_0 = const()[name = tensor<string, []>("input_249_pad_type_0"), val = tensor<string, []>("custom")];
            tensor<int32, [4]> input_249_pad_0 = const()[name = tensor<string, []>("input_249_pad_0"), val = tensor<int32, [4]>([1, 1, 1, 1])];
            tensor<int32, [2]> input_249_strides_0 = const()[name = tensor<string, []>("input_249_strides_0"), val = tensor<int32, [2]>([1, 1])];
            tensor<int32, [2]> input_249_dilations_0 = const()[name = tensor<string, []>("input_249_dilations_0"), val = tensor<int32, [2]>([1, 1])];
            tensor<int32, []> input_249_groups_0 = const()[name = tensor<string, []>("input_249_groups_0"), val = tensor<int32, []>(1)];
            tensor<fp16, [64, 64, 3, 3]> model_model_23_cv2_0_1_conv_weight_to_fp16 = const()[name = tensor<string, []>("model_model_23_cv2_0_1_conv_weight_to_fp16"), val = tensor<fp16, [64, 64, 3, 3]>(BLOBFILE(path = tensor<string, []>("@model_path/weights/weight.bin"), offset = tensor<uint64, []>(4387968)))];
            tensor<fp16, [64]> model_model_23_cv2_0_1_conv_bias_to_fp16 = const()[name = tensor<string, []>("model_model_23_cv2_0_1_conv_bias_to_fp16"), val = tensor<fp16, [64]>(BLOBFILE(path = tensor<string, []>("@model_path/weights/weight.bin"), offset = tensor<uint64, []>(4461760)))];
            tensor<fp16, [1, 64, 80, 80]> input_249_cast_fp16 = conv(bias = model_model_23_cv2_0_1_conv_bias_to_fp16, dilations = input_249_dilations_0, groups = input_249_groups_0, pad = input_249_pad_0, pad_type = input_249_pad_type_0, strides = input_249_strides_0, weight = model_model_23_cv2_0_1_conv_weight_to_fp16, x = input_247_cast_fp16)[name = tensor<string, []>("input_249_cast_fp16")];
            tensor<fp16, [1, 64, 80, 80]> input_251_cast_fp16 = silu(x = input_249_cast_fp16)[name = tensor<string, []>("input_251_cast_fp16")];
            tensor<string, []> var_876_pad_type_0 = const()[name = tensor<string, []>("op_876_pad_type_0"), val = tensor<string, []>("valid")];
            tensor<int32, [2]> var_876_strides_0 = const()[name = tensor<string, []>("op_876_strides_0"), val = tensor<int32, [2]>([1, 1])];
            tensor<int32, [4]> var_876_pad_0 = const()[name = tensor<string, []>("op_876_pad_0"), val = tensor<int32, [4]>([0, 0, 0, 0])];
            tensor<int32, [2]> var_876_dilations_0 = const()[name = tensor<string, []>("op_876_dilations_0"), val = tensor<int32, [2]>([1, 1])];
            tensor<int32, []> var_876_groups_0 = const()[name = tensor<string, []>("op_876_groups_0"), val = tensor<int32, []>(1)];
            tensor<fp16, [64, 64, 1, 1]> model_model_23_cv2_0_2_weight_to_fp16 = const()[name = tensor<string, []>("model_model_23_cv2_0_2_weight_to_fp16"), val = tensor<fp16, [64, 64, 1, 1]>(BLOBFILE(path = tensor<string, []>("@model_path/weights/weight.bin"), offset = tensor<uint64, []>(4461952)))];
            tensor<fp16, [64]> model_model_23_cv2_0_2_bias_to_fp16 = const()[name = tensor<string, []>("model_model_23_cv2_0_2_bias_to_fp16"), val = tensor<fp16, [64]>(BLOBFILE(path = tensor<string, []>("@model_path/weights/weight.bin"), offset = tensor<uint64, []>(4470208)))];
            tensor<fp16, [1, 64, 80, 80]> var_876_cast_fp16 = conv(bias = model_model_23_cv2_0_2_bias_to_fp16, dilations = var_876_dilations_0, groups = var_876_groups_0, pad = var_876_pad_0, pad_type = var_876_pad_type_0, strides = var_876_strides_0, weight = model_model_23_cv2_0_2_weight_to_fp16, x = input_251_cast_fp16)[name = tensor<string, []>("op_876_cast_fp16")];
            tensor<string, []> input_253_pad_type_0 = const()[name = tensor<string, []>("input_253_pad_type_0"), val = tensor<string, []>("custom")];
            tensor<int32, [4]> input_253_pad_0 = const()[name = tensor<string, []>("input_253_pad_0"), val = tensor<int32, [4]>([1, 1, 1, 1])];
            tensor<int32, []> input_253_groups_0 = const()[name = tensor<string, []>("input_253_groups_0"), val = tensor<int32, []>(64)];
            tensor<int32, [2]> input_253_strides_0 = const()[name = tensor<string, []>("input_253_strides_0"), val = tensor<int32, [2]>([1, 1])];
            tensor<int32, [2]> input_253_dilations_0 = const()[name = tensor<string, []>("input_253_dilations_0"), val = tensor<int32, [2]>([1, 1])];
            tensor<fp16, [64, 1, 3, 3]> model_model_23_cv3_0_0_0_conv_weight_to_fp16 = const()[name = tensor<string, []>("model_model_23_cv3_0_0_0_conv_weight_to_fp16"), val = tensor<fp16, [64, 1, 3, 3]>(BLOBFILE(path = tensor<string, []>("@model_path/weights/weight.bin"), offset = tensor<uint64, []>(4470400)))];
            tensor<fp16, [64]> model_model_23_cv3_0_0_0_conv_bias_to_fp16 = const()[name = tensor<string, []>("model_model_23_cv3_0_0_0_conv_bias_to_fp16"), val = tensor<fp16, [64]>(BLOBFILE(path = tensor<string, []>("@model_path/weights/weight.bin"), offset = tensor<uint64, []>(4471616)))];
            tensor<fp16, [1, 64, 80, 80]> input_253_cast_fp16 = conv(bias = model_model_23_cv3_0_0_0_conv_bias_to_fp16, dilations = input_253_dilations_0, groups = input_253_groups_0, pad = input_253_pad_0, pad_type = input_253_pad_type_0, strides = input_253_strides_0, weight = model_model_23_cv3_0_0_0_conv_weight_to_fp16, x = input_187_cast_fp16)[name = tensor<string, []>("input_253_cast_fp16")];
            tensor<fp16, [1, 64, 80, 80]> input_255_cast_fp16 = silu(x = input_253_cast_fp16)[name = tensor<string, []>("input_255_cast_fp16")];
            tensor<string, []> input_257_pad_type_0 = const()[name = tensor<string, []>("input_257_pad_type_0"), val = tensor<string, []>("valid")];
            tensor<int32, [2]> input_257_strides_0 = const()[name = tensor<string, []>("input_257_strides_0"), val = tensor<int32, [2]>([1, 1])];
            tensor<int32, [4]> input_257_pad_0 = const()[name = tensor<string, []>("input_257_pad_0"), val = tensor<int32, [4]>([0, 0, 0, 0])];
            tensor<int32, [2]> input_257_dilations_0 = const()[name = tensor<string, []>("input_257_dilations_0"), val = tensor<int32, [2]>([1, 1])];
            tensor<int32, []> input_257_groups_0 = const()[name = tensor<string, []>("input_257_groups_0"), val = tensor<int32, []>(1)];
            tensor<fp16, [64, 64, 1, 1]> model_model_23_cv3_0_0_1_conv_weight_to_fp16 = const()[name = tensor<string, []>("model_model_23_cv3_0_0_1_conv_weight_to_fp16"), val = tensor<fp16, [64, 64, 1, 1]>(BLOBFILE(path = tensor<string, []>("@model_path/weights/weight.bin"), offset = tensor<uint64, []>(4471808)))];
            tensor<fp16, [64]> model_model_23_cv3_0_0_1_conv_bias_to_fp16 = const()[name = tensor<string, []>("model_model_23_cv3_0_0_1_conv_bias_to_fp16"), val = tensor<fp16, [64]>(BLOBFILE(path = tensor<string, []>("@model_path/weights/weight.bin"), offset = tensor<uint64, []>(4480064)))];
            tensor<fp16, [1, 64, 80, 80]> input_257_cast_fp16 = conv(bias = model_model_23_cv3_0_0_1_conv_bias_to_fp16, dilations = input_257_dilations_0, groups = input_257_groups_0, pad = input_257_pad_0, pad_type = input_257_pad_type_0, strides = input_257_strides_0, weight = model_model_23_cv3_0_0_1_conv_weight_to_fp16, x = input_255_cast_fp16)[name = tensor<string, []>("input_257_cast_fp16")];
            tensor<fp16, [1, 64, 80, 80]> input_259_cast_fp16 = silu(x = input_257_cast_fp16)[name = tensor<string, []>("input_259_cast_fp16")];
            tensor<string, []> input_261_pad_type_0 = const()[name = tensor<string, []>("input_261_pad_type_0"), val = tensor<string, []>("custom")];
            tensor<int32, [4]> input_261_pad_0 = const()[name = tensor<string, []>("input_261_pad_0"), val = tensor<int32, [4]>([1, 1, 1, 1])];
            tensor<int32, []> input_261_groups_0 = const()[name = tensor<string, []>("input_261_groups_0"), val = tensor<int32, []>(64)];
            tensor<int32, [2]> input_261_strides_0 = const()[name = tensor<string, []>("input_261_strides_0"), val = tensor<int32, [2]>([1, 1])];
            tensor<int32, [2]> input_261_dilations_0 = const()[name = tensor<string, []>("input_261_dilations_0"), val = tensor<int32, [2]>([1, 1])];
            tensor<fp16, [64, 1, 3, 3]> model_model_23_cv3_0_1_0_conv_weight_to_fp16 = const()[name = tensor<string, []>("model_model_23_cv3_0_1_0_conv_weight_to_fp16"), val = tensor<fp16, [64, 1, 3, 3]>(BLOBFILE(path = tensor<string, []>("@model_path/weights/weight.bin"), offset = tensor<uint64, []>(4480256)))];
            tensor<fp16, [64]> model_model_23_cv3_0_1_0_conv_bias_to_fp16 = const()[name = tensor<string, []>("model_model_23_cv3_0_1_0_conv_bias_to_fp16"), val = tensor<fp16, [64]>(BLOBFILE(path = tensor<string, []>("@model_path/weights/weight.bin"), offset = tensor<uint64, []>(4481472)))];
            tensor<fp16, [1, 64, 80, 80]> input_261_cast_fp16 = conv(bias = model_model_23_cv3_0_1_0_conv_bias_to_fp16, dilations = input_261_dilations_0, groups = input_261_groups_0, pad = input_261_pad_0, pad_type = input_261_pad_type_0, strides = input_261_strides_0, weight = model_model_23_cv3_0_1_0_conv_weight_to_fp16, x = input_259_cast_fp16)[name = tensor<string, []>("input_261_cast_fp16")];
            tensor<fp16, [1, 64, 80, 80]> input_263_cast_fp16 = silu(x = input_261_cast_fp16)[name = tensor<string, []>("input_263_cast_fp16")];
            tensor<string, []> input_265_pad_type_0 = const()[name = tensor<string, []>("input_265_pad_type_0"), val = tensor<string, []>("valid")];
            tensor<int32, [2]> input_265_strides_0 = const()[name = tensor<string, []>("input_265_strides_0"), val = tensor<int32, [2]>([1, 1])];
            tensor<int32, [4]> input_265_pad_0 = const()[name = tensor<string, []>("input_265_pad_0"), val = tensor<int32, [4]>([0, 0, 0, 0])];
            tensor<int32, [2]> input_265_dilations_0 = const()[name = tensor<string, []>("input_265_dilations_0"), val = tensor<int32, [2]>([1, 1])];
            tensor<int32, []> input_265_groups_0 = const()[name = tensor<string, []>("input_265_groups_0"), val = tensor<int32, []>(1)];
            tensor<fp16, [64, 64, 1, 1]> model_model_23_cv3_0_1_1_conv_weight_to_fp16 = const()[name = tensor<string, []>("model_model_23_cv3_0_1_1_conv_weight_to_fp16"), val = tensor<fp16, [64, 64, 1, 1]>(BLOBFILE(path = tensor<string, []>("@model_path/weights/weight.bin"), offset = tensor<uint64, []>(4481664)))];
            tensor<fp16, [64]> model_model_23_cv3_0_1_1_conv_bias_to_fp16 = const()[name = tensor<string, []>("model_model_23_cv3_0_1_1_conv_bias_to_fp16"), val = tensor<fp16, [64]>(BLOBFILE(path = tensor<string, []>("@model_path/weights/weight.bin"), offset = tensor<uint64, []>(4489920)))];
            tensor<fp16, [1, 64, 80, 80]> input_265_cast_fp16 = conv(bias = model_model_23_cv3_0_1_1_conv_bias_to_fp16, dilations = input_265_dilations_0, groups = input_265_groups_0, pad = input_265_pad_0, pad_type = input_265_pad_type_0, strides = input_265_strides_0, weight = model_model_23_cv3_0_1_1_conv_weight_to_fp16, x = input_263_cast_fp16)[name = tensor<string, []>("input_265_cast_fp16")];
            tensor<fp16, [1, 64, 80, 80]> input_267_cast_fp16 = silu(x = input_265_cast_fp16)[name = tensor<string, []>("input_267_cast_fp16")];
            tensor<string, []> var_926_pad_type_0 = const()[name = tensor<string, []>("op_926_pad_type_0"), val = tensor<string, []>("valid")];
            tensor<int32, [2]> var_926_strides_0 = const()[name = tensor<string, []>("op_926_strides_0"), val = tensor<int32, [2]>([1, 1])];
            tensor<int32, [4]> var_926_pad_0 = const()[name = tensor<string, []>("op_926_pad_0"), val = tensor<int32, [4]>([0, 0, 0, 0])];
            tensor<int32, [2]> var_926_dilations_0 = const()[name = tensor<string, []>("op_926_dilations_0"), val = tensor<int32, [2]>([1, 1])];
            tensor<int32, []> var_926_groups_0 = const()[name = tensor<string, []>("op_926_groups_0"), val = tensor<int32, []>(1)];
            tensor<fp16, [2, 64, 1, 1]> model_model_23_cv3_0_2_weight_to_fp16 = const()[name = tensor<string, []>("model_model_23_cv3_0_2_weight_to_fp16"), val = tensor<fp16, [2, 64, 1, 1]>(BLOBFILE(path = tensor<string, []>("@model_path/weights/weight.bin"), offset = tensor<uint64, []>(4490112)))];
            tensor<fp16, [2]> model_model_23_cv3_0_2_bias_to_fp16 = const()[name = tensor<string, []>("model_model_23_cv3_0_2_bias_to_fp16"), val = tensor<fp16, [2]>([-0x1.008p+3, -0x1.fecp+2])];
            tensor<fp16, [1, 2, 80, 80]> var_926_cast_fp16 = conv(bias = model_model_23_cv3_0_2_bias_to_fp16, dilations = var_926_dilations_0, groups = var_926_groups_0, pad = var_926_pad_0, pad_type = var_926_pad_type_0, strides = var_926_strides_0, weight = model_model_23_cv3_0_2_weight_to_fp16, x = input_267_cast_fp16)[name = tensor<string, []>("op_926_cast_fp16")];
            tensor<bool, []> xi_1_interleave_0 = const()[name = tensor<string, []>("xi_1_interleave_0"), val = tensor<bool, []>(false)];
            tensor<fp16, [1, 66, 80, 80]> xi_1_cast_fp16 = concat(axis = var_21, interleave = xi_1_interleave_0, values = (var_876_cast_fp16, var_926_cast_fp16))[name = tensor<string, []>("xi_1_cast_fp16")];
            tensor<string, []> input_269_pad_type_0 = const()[name = tensor<string, []>("input_269_pad_type_0"), val = tensor<string, []>("custom")];
            tensor<int32, [4]> input_269_pad_0 = const()[name = tensor<string, []>("input_269_pad_0"), val = tensor<int32, [4]>([1, 1, 1, 1])];
            tensor<int32, [2]> input_269_strides_0 = const()[name = tensor<string, []>("input_269_strides_0"), val = tensor<int32, [2]>([1, 1])];
            tensor<int32, [2]> input_269_dilations_0 = const()[name = tensor<string, []>("input_269_dilations_0"), val = tensor<int32, [2]>([1, 1])];
            tensor<int32, []> input_269_groups_0 = const()[name = tensor<string, []>("input_269_groups_0"), val = tensor<int32, []>(1)];
            tensor<fp16, [64, 128, 3, 3]> model_model_23_cv2_1_0_conv_weight_to_fp16 = const()[name = tensor<string, []>("model_model_23_cv2_1_0_conv_weight_to_fp16"), val = tensor<fp16, [64, 128, 3, 3]>(BLOBFILE(path = tensor<string, []>("@model_path/weights/weight.bin"), offset = tensor<uint64, []>(4490432)))];
            tensor<fp16, [64]> model_model_23_cv2_1_0_conv_bias_to_fp16 = const()[name = tensor<string, []>("model_model_23_cv2_1_0_conv_bias_to_fp16"), val = tensor<fp16, [64]>(BLOBFILE(path = tensor<string, []>("@model_path/weights/weight.bin"), offset = tensor<uint64, []>(4637952)))];
            tensor<fp16, [1, 64, 40, 40]> input_269_cast_fp16 = conv(bias = model_model_23_cv2_1_0_conv_bias_to_fp16, dilations = input_269_dilations_0, groups = input_269_groups_0, pad = input_269_pad_0, pad_type = input_269_pad_type_0, strides = input_269_strides_0, weight = model_model_23_cv2_1_0_conv_weight_to_fp16, x = input_207_cast_fp16)[name = tensor<string, []>("input_269_cast_fp16")];
            tensor<fp16, [1, 64, 40, 40]> input_271_cast_fp16 = silu(x = input_269_cast_fp16)[name = tensor<string, []>("input_271_cast_fp16")];
            tensor<string, []> input_273_pad_type_0 = const()[name = tensor<string, []>("input_273_pad_type_0"), val = tensor<string, []>("custom")];
            tensor<int32, [4]> input_273_pad_0 = const()[name = tensor<string, []>("input_273_pad_0"), val = tensor<int32, [4]>([1, 1, 1, 1])];
            tensor<int32, [2]> input_273_strides_0 = const()[name = tensor<string, []>("input_273_strides_0"), val = tensor<int32, [2]>([1, 1])];
            tensor<int32, [2]> input_273_dilations_0 = const()[name = tensor<string, []>("input_273_dilations_0"), val = tensor<int32, [2]>([1, 1])];
            tensor<int32, []> input_273_groups_0 = const()[name = tensor<string, []>("input_273_groups_0"), val = tensor<int32, []>(1)];
            tensor<fp16, [64, 64, 3, 3]> model_model_23_cv2_1_1_conv_weight_to_fp16 = const()[name = tensor<string, []>("model_model_23_cv2_1_1_conv_weight_to_fp16"), val = tensor<fp16, [64, 64, 3, 3]>(BLOBFILE(path = tensor<string, []>("@model_path/weights/weight.bin"), offset = tensor<uint64, []>(4638144)))];
            tensor<fp16, [64]> model_model_23_cv2_1_1_conv_bias_to_fp16 = const()[name = tensor<string, []>("model_model_23_cv2_1_1_conv_bias_to_fp16"), val = tensor<fp16, [64]>(BLOBFILE(path = tensor<string, []>("@model_path/weights/weight.bin"), offset = tensor<uint64, []>(4711936)))];
            tensor<fp16, [1, 64, 40, 40]> input_273_cast_fp16 = conv(bias = model_model_23_cv2_1_1_conv_bias_to_fp16, dilations = input_273_dilations_0, groups = input_273_groups_0, pad = input_273_pad_0, pad_type = input_273_pad_type_0, strides = input_273_strides_0, weight = model_model_23_cv2_1_1_conv_weight_to_fp16, x = input_271_cast_fp16)[name = tensor<string, []>("input_273_cast_fp16")];
            tensor<fp16, [1, 64, 40, 40]> input_275_cast_fp16 = silu(x = input_273_cast_fp16)[name = tensor<string, []>("input_275_cast_fp16")];
            tensor<string, []> var_956_pad_type_0 = const()[name = tensor<string, []>("op_956_pad_type_0"), val = tensor<string, []>("valid")];
            tensor<int32, [2]> var_956_strides_0 = const()[name = tensor<string, []>("op_956_strides_0"), val = tensor<int32, [2]>([1, 1])];
            tensor<int32, [4]> var_956_pad_0 = const()[name = tensor<string, []>("op_956_pad_0"), val = tensor<int32, [4]>([0, 0, 0, 0])];
            tensor<int32, [2]> var_956_dilations_0 = const()[name = tensor<string, []>("op_956_dilations_0"), val = tensor<int32, [2]>([1, 1])];
            tensor<int32, []> var_956_groups_0 = const()[name = tensor<string, []>("op_956_groups_0"), val = tensor<int32, []>(1)];
            tensor<fp16, [64, 64, 1, 1]> model_model_23_cv2_1_2_weight_to_fp16 = const()[name = tensor<string, []>("model_model_23_cv2_1_2_weight_to_fp16"), val = tensor<fp16, [64, 64, 1, 1]>(BLOBFILE(path = tensor<string, []>("@model_path/weights/weight.bin"), offset = tensor<uint64, []>(4712128)))];
            tensor<fp16, [64]> model_model_23_cv2_1_2_bias_to_fp16 = const()[name = tensor<string, []>("model_model_23_cv2_1_2_bias_to_fp16"), val = tensor<fp16, [64]>(BLOBFILE(path = tensor<string, []>("@model_path/weights/weight.bin"), offset = tensor<uint64, []>(4720384)))];
            tensor<fp16, [1, 64, 40, 40]> var_956_cast_fp16 = conv(bias = model_model_23_cv2_1_2_bias_to_fp16, dilations = var_956_dilations_0, groups = var_956_groups_0, pad = var_956_pad_0, pad_type = var_956_pad_type_0, strides = var_956_strides_0, weight = model_model_23_cv2_1_2_weight_to_fp16, x = input_275_cast_fp16)[name = tensor<string, []>("op_956_cast_fp16")];
            tensor<string, []> input_277_pad_type_0 = const()[name = tensor<string, []>("input_277_pad_type_0"), val = tensor<string, []>("custom")];
            tensor<int32, [4]> input_277_pad_0 = const()[name = tensor<string, []>("input_277_pad_0"), val = tensor<int32, [4]>([1, 1, 1, 1])];
            tensor<int32, []> input_277_groups_0 = const()[name = tensor<string, []>("input_277_groups_0"), val = tensor<int32, []>(128)];
            tensor<int32, [2]> input_277_strides_0 = const()[name = tensor<string, []>("input_277_strides_0"), val = tensor<int32, [2]>([1, 1])];
            tensor<int32, [2]> input_277_dilations_0 = const()[name = tensor<string, []>("input_277_dilations_0"), val = tensor<int32, [2]>([1, 1])];
            tensor<fp16, [128, 1, 3, 3]> model_model_23_cv3_1_0_0_conv_weight_to_fp16 = const()[name = tensor<string, []>("model_model_23_cv3_1_0_0_conv_weight_to_fp16"), val = tensor<fp16, [128, 1, 3, 3]>(BLOBFILE(path = tensor<string, []>("@model_path/weights/weight.bin"), offset = tensor<uint64, []>(4720576)))];
            tensor<fp16, [128]> model_model_23_cv3_1_0_0_conv_bias_to_fp16 = const()[name = tensor<string, []>("model_model_23_cv3_1_0_0_conv_bias_to_fp16"), val = tensor<fp16, [128]>(BLOBFILE(path = tensor<string, []>("@model_path/weights/weight.bin"), offset = tensor<uint64, []>(4722944)))];
            tensor<fp16, [1, 128, 40, 40]> input_277_cast_fp16 = conv(bias = model_model_23_cv3_1_0_0_conv_bias_to_fp16, dilations = input_277_dilations_0, groups = input_277_groups_0, pad = input_277_pad_0, pad_type = input_277_pad_type_0, strides = input_277_strides_0, weight = model_model_23_cv3_1_0_0_conv_weight_to_fp16, x = input_207_cast_fp16)[name = tensor<string, []>("input_277_cast_fp16")];
            tensor<fp16, [1, 128, 40, 40]> input_279_cast_fp16 = silu(x = input_277_cast_fp16)[name = tensor<string, []>("input_279_cast_fp16")];
            tensor<string, []> input_281_pad_type_0 = const()[name = tensor<string, []>("input_281_pad_type_0"), val = tensor<string, []>("valid")];
            tensor<int32, [2]> input_281_strides_0 = const()[name = tensor<string, []>("input_281_strides_0"), val = tensor<int32, [2]>([1, 1])];
            tensor<int32, [4]> input_281_pad_0 = const()[name = tensor<string, []>("input_281_pad_0"), val = tensor<int32, [4]>([0, 0, 0, 0])];
            tensor<int32, [2]> input_281_dilations_0 = const()[name = tensor<string, []>("input_281_dilations_0"), val = tensor<int32, [2]>([1, 1])];
            tensor<int32, []> input_281_groups_0 = const()[name = tensor<string, []>("input_281_groups_0"), val = tensor<int32, []>(1)];
            tensor<fp16, [64, 128, 1, 1]> model_model_23_cv3_1_0_1_conv_weight_to_fp16 = const()[name = tensor<string, []>("model_model_23_cv3_1_0_1_conv_weight_to_fp16"), val = tensor<fp16, [64, 128, 1, 1]>(BLOBFILE(path = tensor<string, []>("@model_path/weights/weight.bin"), offset = tensor<uint64, []>(4723264)))];
            tensor<fp16, [64]> model_model_23_cv3_1_0_1_conv_bias_to_fp16 = const()[name = tensor<string, []>("model_model_23_cv3_1_0_1_conv_bias_to_fp16"), val = tensor<fp16, [64]>(BLOBFILE(path = tensor<string, []>("@model_path/weights/weight.bin"), offset = tensor<uint64, []>(4739712)))];
            tensor<fp16, [1, 64, 40, 40]> input_281_cast_fp16 = conv(bias = model_model_23_cv3_1_0_1_conv_bias_to_fp16, dilations = input_281_dilations_0, groups = input_281_groups_0, pad = input_281_pad_0, pad_type = input_281_pad_type_0, strides = input_281_strides_0, weight = model_model_23_cv3_1_0_1_conv_weight_to_fp16, x = input_279_cast_fp16)[name = tensor<string, []>("input_281_cast_fp16")];
            tensor<fp16, [1, 64, 40, 40]> input_283_cast_fp16 = silu(x = input_281_cast_fp16)[name = tensor<string, []>("input_283_cast_fp16")];
            tensor<string, []> input_285_pad_type_0 = const()[name = tensor<string, []>("input_285_pad_type_0"), val = tensor<string, []>("custom")];
            tensor<int32, [4]> input_285_pad_0 = const()[name = tensor<string, []>("input_285_pad_0"), val = tensor<int32, [4]>([1, 1, 1, 1])];
            tensor<int32, []> input_285_groups_0 = const()[name = tensor<string, []>("input_285_groups_0"), val = tensor<int32, []>(64)];
            tensor<int32, [2]> input_285_strides_0 = const()[name = tensor<string, []>("input_285_strides_0"), val = tensor<int32, [2]>([1, 1])];
            tensor<int32, [2]> input_285_dilations_0 = const()[name = tensor<string, []>("input_285_dilations_0"), val = tensor<int32, [2]>([1, 1])];
            tensor<fp16, [64, 1, 3, 3]> model_model_23_cv3_1_1_0_conv_weight_to_fp16 = const()[name = tensor<string, []>("model_model_23_cv3_1_1_0_conv_weight_to_fp16"), val = tensor<fp16, [64, 1, 3, 3]>(BLOBFILE(path = tensor<string, []>("@model_path/weights/weight.bin"), offset = tensor<uint64, []>(4739904)))];
            tensor<fp16, [64]> model_model_23_cv3_1_1_0_conv_bias_to_fp16 = const()[name = tensor<string, []>("model_model_23_cv3_1_1_0_conv_bias_to_fp16"), val = tensor<fp16, [64]>(BLOBFILE(path = tensor<string, []>("@model_path/weights/weight.bin"), offset = tensor<uint64, []>(4741120)))];
            tensor<fp16, [1, 64, 40, 40]> input_285_cast_fp16 = conv(bias = model_model_23_cv3_1_1_0_conv_bias_to_fp16, dilations = input_285_dilations_0, groups = input_285_groups_0, pad = input_285_pad_0, pad_type = input_285_pad_type_0, strides = input_285_strides_0, weight = model_model_23_cv3_1_1_0_conv_weight_to_fp16, x = input_283_cast_fp16)[name = tensor<string, []>("input_285_cast_fp16")];
            tensor<fp16, [1, 64, 40, 40]> input_287_cast_fp16 = silu(x = input_285_cast_fp16)[name = tensor<string, []>("input_287_cast_fp16")];
            tensor<string, []> input_289_pad_type_0 = const()[name = tensor<string, []>("input_289_pad_type_0"), val = tensor<string, []>("valid")];
            tensor<int32, [2]> input_289_strides_0 = const()[name = tensor<string, []>("input_289_strides_0"), val = tensor<int32, [2]>([1, 1])];
            tensor<int32, [4]> input_289_pad_0 = const()[name = tensor<string, []>("input_289_pad_0"), val = tensor<int32, [4]>([0, 0, 0, 0])];
            tensor<int32, [2]> input_289_dilations_0 = const()[name = tensor<string, []>("input_289_dilations_0"), val = tensor<int32, [2]>([1, 1])];
            tensor<int32, []> input_289_groups_0 = const()[name = tensor<string, []>("input_289_groups_0"), val = tensor<int32, []>(1)];
            tensor<fp16, [64, 64, 1, 1]> model_model_23_cv3_1_1_1_conv_weight_to_fp16 = const()[name = tensor<string, []>("model_model_23_cv3_1_1_1_conv_weight_to_fp16"), val = tensor<fp16, [64, 64, 1, 1]>(BLOBFILE(path = tensor<string, []>("@model_path/weights/weight.bin"), offset = tensor<uint64, []>(4741312)))];
            tensor<fp16, [64]> model_model_23_cv3_1_1_1_conv_bias_to_fp16 = const()[name = tensor<string, []>("model_model_23_cv3_1_1_1_conv_bias_to_fp16"), val = tensor<fp16, [64]>(BLOBFILE(path = tensor<string, []>("@model_path/weights/weight.bin"), offset = tensor<uint64, []>(4749568)))];
            tensor<fp16, [1, 64, 40, 40]> input_289_cast_fp16 = conv(bias = model_model_23_cv3_1_1_1_conv_bias_to_fp16, dilations = input_289_dilations_0, groups = input_289_groups_0, pad = input_289_pad_0, pad_type = input_289_pad_type_0, strides = input_289_strides_0, weight = model_model_23_cv3_1_1_1_conv_weight_to_fp16, x = input_287_cast_fp16)[name = tensor<string, []>("input_289_cast_fp16")];
            tensor<fp16, [1, 64, 40, 40]> input_291_cast_fp16 = silu(x = input_289_cast_fp16)[name = tensor<string, []>("input_291_cast_fp16")];
            tensor<string, []> var_1006_pad_type_0 = const()[name = tensor<string, []>("op_1006_pad_type_0"), val = tensor<string, []>("valid")];
            tensor<int32, [2]> var_1006_strides_0 = const()[name = tensor<string, []>("op_1006_strides_0"), val = tensor<int32, [2]>([1, 1])];
            tensor<int32, [4]> var_1006_pad_0 = const()[name = tensor<string, []>("op_1006_pad_0"), val = tensor<int32, [4]>([0, 0, 0, 0])];
            tensor<int32, [2]> var_1006_dilations_0 = const()[name = tensor<string, []>("op_1006_dilations_0"), val = tensor<int32, [2]>([1, 1])];
            tensor<int32, []> var_1006_groups_0 = const()[name = tensor<string, []>("op_1006_groups_0"), val = tensor<int32, []>(1)];
            tensor<fp16, [2, 64, 1, 1]> model_model_23_cv3_1_2_weight_to_fp16 = const()[name = tensor<string, []>("model_model_23_cv3_1_2_weight_to_fp16"), val = tensor<fp16, [2, 64, 1, 1]>(BLOBFILE(path = tensor<string, []>("@model_path/weights/weight.bin"), offset = tensor<uint64, []>(4749760)))];
            tensor<fp16, [2]> model_model_23_cv3_1_2_bias_to_fp16 = const()[name = tensor<string, []>("model_model_23_cv3_1_2_bias_to_fp16"), val = tensor<fp16, [2]>([-0x1.a64p+2, -0x1.a74p+2])];
            tensor<fp16, [1, 2, 40, 40]> var_1006_cast_fp16 = conv(bias = model_model_23_cv3_1_2_bias_to_fp16, dilations = var_1006_dilations_0, groups = var_1006_groups_0, pad = var_1006_pad_0, pad_type = var_1006_pad_type_0, strides = var_1006_strides_0, weight = model_model_23_cv3_1_2_weight_to_fp16, x = input_291_cast_fp16)[name = tensor<string, []>("op_1006_cast_fp16")];
            tensor<bool, []> xi_3_interleave_0 = const()[name = tensor<string, []>("xi_3_interleave_0"), val = tensor<bool, []>(false)];
            tensor<fp16, [1, 66, 40, 40]> xi_3_cast_fp16 = concat(axis = var_21, interleave = xi_3_interleave_0, values = (var_956_cast_fp16, var_1006_cast_fp16))[name = tensor<string, []>("xi_3_cast_fp16")];
            tensor<string, []> input_295_pad_type_0 = const()[name = tensor<string, []>("input_295_pad_type_0"), val = tensor<string, []>("custom")];
            tensor<int32, [4]> input_295_pad_0 = const()[name = tensor<string, []>("input_295_pad_0"), val = tensor<int32, [4]>([1, 1, 1, 1])];
            tensor<int32, [2]> input_295_strides_0 = const()[name = tensor<string, []>("input_295_strides_0"), val = tensor<int32, [2]>([1, 1])];
            tensor<int32, [2]> input_295_dilations_0 = const()[name = tensor<string, []>("input_295_dilations_0"), val = tensor<int32, [2]>([1, 1])];
            tensor<int32, []> input_295_groups_0 = const()[name = tensor<string, []>("input_295_groups_0"), val = tensor<int32, []>(1)];
            tensor<fp16, [64, 256, 3, 3]> model_model_23_cv2_2_0_conv_weight_to_fp16 = const()[name = tensor<string, []>("model_model_23_cv2_2_0_conv_weight_to_fp16"), val = tensor<fp16, [64, 256, 3, 3]>(BLOBFILE(path = tensor<string, []>("@model_path/weights/weight.bin"), offset = tensor<uint64, []>(4750080)))];
            tensor<fp16, [64]> model_model_23_cv2_2_0_conv_bias_to_fp16 = const()[name = tensor<string, []>("model_model_23_cv2_2_0_conv_bias_to_fp16"), val = tensor<fp16, [64]>(BLOBFILE(path = tensor<string, []>("@model_path/weights/weight.bin"), offset = tensor<uint64, []>(5045056)))];
            tensor<fp16, [1, 64, 20, 20]> input_295_cast_fp16 = conv(bias = model_model_23_cv2_2_0_conv_bias_to_fp16, dilations = input_295_dilations_0, groups = input_295_groups_0, pad = input_295_pad_0, pad_type = input_295_pad_type_0, strides = input_295_strides_0, weight = model_model_23_cv2_2_0_conv_weight_to_fp16, x = input_293_cast_fp16)[name = tensor<string, []>("input_295_cast_fp16")];
            tensor<fp16, [1, 64, 20, 20]> input_297_cast_fp16 = silu(x = input_295_cast_fp16)[name = tensor<string, []>("input_297_cast_fp16")];
            tensor<string, []> input_299_pad_type_0 = const()[name = tensor<string, []>("input_299_pad_type_0"), val = tensor<string, []>("custom")];
            tensor<int32, [4]> input_299_pad_0 = const()[name = tensor<string, []>("input_299_pad_0"), val = tensor<int32, [4]>([1, 1, 1, 1])];
            tensor<int32, [2]> input_299_strides_0 = const()[name = tensor<string, []>("input_299_strides_0"), val = tensor<int32, [2]>([1, 1])];
            tensor<int32, [2]> input_299_dilations_0 = const()[name = tensor<string, []>("input_299_dilations_0"), val = tensor<int32, [2]>([1, 1])];
            tensor<int32, []> input_299_groups_0 = const()[name = tensor<string, []>("input_299_groups_0"), val = tensor<int32, []>(1)];
            tensor<fp16, [64, 64, 3, 3]> model_model_23_cv2_2_1_conv_weight_to_fp16 = const()[name = tensor<string, []>("model_model_23_cv2_2_1_conv_weight_to_fp16"), val = tensor<fp16, [64, 64, 3, 3]>(BLOBFILE(path = tensor<string, []>("@model_path/weights/weight.bin"), offset = tensor<uint64, []>(5045248)))];
            tensor<fp16, [64]> model_model_23_cv2_2_1_conv_bias_to_fp16 = const()[name = tensor<string, []>("model_model_23_cv2_2_1_conv_bias_to_fp16"), val = tensor<fp16, [64]>(BLOBFILE(path = tensor<string, []>("@model_path/weights/weight.bin"), offset = tensor<uint64, []>(5119040)))];
            tensor<fp16, [1, 64, 20, 20]> input_299_cast_fp16 = conv(bias = model_model_23_cv2_2_1_conv_bias_to_fp16, dilations = input_299_dilations_0, groups = input_299_groups_0, pad = input_299_pad_0, pad_type = input_299_pad_type_0, strides = input_299_strides_0, weight = model_model_23_cv2_2_1_conv_weight_to_fp16, x = input_297_cast_fp16)[name = tensor<string, []>("input_299_cast_fp16")];
            tensor<fp16, [1, 64, 20, 20]> input_301_cast_fp16 = silu(x = input_299_cast_fp16)[name = tensor<string, []>("input_301_cast_fp16")];
            tensor<string, []> var_1036_pad_type_0 = const()[name = tensor<string, []>("op_1036_pad_type_0"), val = tensor<string, []>("valid")];
            tensor<int32, [2]> var_1036_strides_0 = const()[name = tensor<string, []>("op_1036_strides_0"), val = tensor<int32, [2]>([1, 1])];
            tensor<int32, [4]> var_1036_pad_0 = const()[name = tensor<string, []>("op_1036_pad_0"), val = tensor<int32, [4]>([0, 0, 0, 0])];
            tensor<int32, [2]> var_1036_dilations_0 = const()[name = tensor<string, []>("op_1036_dilations_0"), val = tensor<int32, [2]>([1, 1])];
            tensor<int32, []> var_1036_groups_0 = const()[name = tensor<string, []>("op_1036_groups_0"), val = tensor<int32, []>(1)];
            tensor<fp16, [64, 64, 1, 1]> model_model_23_cv2_2_2_weight_to_fp16 = const()[name = tensor<string, []>("model_model_23_cv2_2_2_weight_to_fp16"), val = tensor<fp16, [64, 64, 1, 1]>(BLOBFILE(path = tensor<string, []>("@model_path/weights/weight.bin"), offset = tensor<uint64, []>(5119232)))];
            tensor<fp16, [64]> model_model_23_cv2_2_2_bias_to_fp16 = const()[name = tensor<string, []>("model_model_23_cv2_2_2_bias_to_fp16"), val = tensor<fp16, [64]>(BLOBFILE(path = tensor<string, []>("@model_path/weights/weight.bin"), offset = tensor<uint64, []>(5127488)))];
            tensor<fp16, [1, 64, 20, 20]> var_1036_cast_fp16 = conv(bias = model_model_23_cv2_2_2_bias_to_fp16, dilations = var_1036_dilations_0, groups = var_1036_groups_0, pad = var_1036_pad_0, pad_type = var_1036_pad_type_0, strides = var_1036_strides_0, weight = model_model_23_cv2_2_2_weight_to_fp16, x = input_301_cast_fp16)[name = tensor<string, []>("op_1036_cast_fp16")];
            tensor<string, []> input_303_pad_type_0 = const()[name = tensor<string, []>("input_303_pad_type_0"), val = tensor<string, []>("custom")];
            tensor<int32, [4]> input_303_pad_0 = const()[name = tensor<string, []>("input_303_pad_0"), val = tensor<int32, [4]>([1, 1, 1, 1])];
            tensor<int32, []> input_303_groups_0 = const()[name = tensor<string, []>("input_303_groups_0"), val = tensor<int32, []>(256)];
            tensor<int32, [2]> input_303_strides_0 = const()[name = tensor<string, []>("input_303_strides_0"), val = tensor<int32, [2]>([1, 1])];
            tensor<int32, [2]> input_303_dilations_0 = const()[name = tensor<string, []>("input_303_dilations_0"), val = tensor<int32, [2]>([1, 1])];
            tensor<fp16, [256, 1, 3, 3]> model_model_23_cv3_2_0_0_conv_weight_to_fp16 = const()[name = tensor<string, []>("model_model_23_cv3_2_0_0_conv_weight_to_fp16"), val = tensor<fp16, [256, 1, 3, 3]>(BLOBFILE(path = tensor<string, []>("@model_path/weights/weight.bin"), offset = tensor<uint64, []>(5127680)))];
            tensor<fp16, [256]> model_model_23_cv3_2_0_0_conv_bias_to_fp16 = const()[name = tensor<string, []>("model_model_23_cv3_2_0_0_conv_bias_to_fp16"), val = tensor<fp16, [256]>(BLOBFILE(path = tensor<string, []>("@model_path/weights/weight.bin"), offset = tensor<uint64, []>(5132352)))];
            tensor<fp16, [1, 256, 20, 20]> input_303_cast_fp16 = conv(bias = model_model_23_cv3_2_0_0_conv_bias_to_fp16, dilations = input_303_dilations_0, groups = input_303_groups_0, pad = input_303_pad_0, pad_type = input_303_pad_type_0, strides = input_303_strides_0, weight = model_model_23_cv3_2_0_0_conv_weight_to_fp16, x = input_293_cast_fp16)[name = tensor<string, []>("input_303_cast_fp16")];
            tensor<fp16, [1, 256, 20, 20]> input_305_cast_fp16 = silu(x = input_303_cast_fp16)[name = tensor<string, []>("input_305_cast_fp16")];
            tensor<string, []> input_307_pad_type_0 = const()[name = tensor<string, []>("input_307_pad_type_0"), val = tensor<string, []>("valid")];
            tensor<int32, [2]> input_307_strides_0 = const()[name = tensor<string, []>("input_307_strides_0"), val = tensor<int32, [2]>([1, 1])];
            tensor<int32, [4]> input_307_pad_0 = const()[name = tensor<string, []>("input_307_pad_0"), val = tensor<int32, [4]>([0, 0, 0, 0])];
            tensor<int32, [2]> input_307_dilations_0 = const()[name = tensor<string, []>("input_307_dilations_0"), val = tensor<int32, [2]>([1, 1])];
            tensor<int32, []> input_307_groups_0 = const()[name = tensor<string, []>("input_307_groups_0"), val = tensor<int32, []>(1)];
            tensor<fp16, [64, 256, 1, 1]> model_model_23_cv3_2_0_1_conv_weight_to_fp16 = const()[name = tensor<string, []>("model_model_23_cv3_2_0_1_conv_weight_to_fp16"), val = tensor<fp16, [64, 256, 1, 1]>(BLOBFILE(path = tensor<string, []>("@model_path/weights/weight.bin"), offset = tensor<uint64, []>(5132928)))];
            tensor<fp16, [64]> model_model_23_cv3_2_0_1_conv_bias_to_fp16 = const()[name = tensor<string, []>("model_model_23_cv3_2_0_1_conv_bias_to_fp16"), val = tensor<fp16, [64]>(BLOBFILE(path = tensor<string, []>("@model_path/weights/weight.bin"), offset = tensor<uint64, []>(5165760)))];
            tensor<fp16, [1, 64, 20, 20]> input_307_cast_fp16 = conv(bias = model_model_23_cv3_2_0_1_conv_bias_to_fp16, dilations = input_307_dilations_0, groups = input_307_groups_0, pad = input_307_pad_0, pad_type = input_307_pad_type_0, strides = input_307_strides_0, weight = model_model_23_cv3_2_0_1_conv_weight_to_fp16, x = input_305_cast_fp16)[name = tensor<string, []>("input_307_cast_fp16")];
            tensor<fp16, [1, 64, 20, 20]> input_309_cast_fp16 = silu(x = input_307_cast_fp16)[name = tensor<string, []>("input_309_cast_fp16")];
            tensor<string, []> input_311_pad_type_0 = const()[name = tensor<string, []>("input_311_pad_type_0"), val = tensor<string, []>("custom")];
            tensor<int32, [4]> input_311_pad_0 = const()[name = tensor<string, []>("input_311_pad_0"), val = tensor<int32, [4]>([1, 1, 1, 1])];
            tensor<int32, []> input_311_groups_0 = const()[name = tensor<string, []>("input_311_groups_0"), val = tensor<int32, []>(64)];
            tensor<int32, [2]> input_311_strides_0 = const()[name = tensor<string, []>("input_311_strides_0"), val = tensor<int32, [2]>([1, 1])];
            tensor<int32, [2]> input_311_dilations_0 = const()[name = tensor<string, []>("input_311_dilations_0"), val = tensor<int32, [2]>([1, 1])];
            tensor<fp16, [64, 1, 3, 3]> model_model_23_cv3_2_1_0_conv_weight_to_fp16 = const()[name = tensor<string, []>("model_model_23_cv3_2_1_0_conv_weight_to_fp16"), val = tensor<fp16, [64, 1, 3, 3]>(BLOBFILE(path = tensor<string, []>("@model_path/weights/weight.bin"), offset = tensor<uint64, []>(5165952)))];
            tensor<fp16, [64]> model_model_23_cv3_2_1_0_conv_bias_to_fp16 = const()[name = tensor<string, []>("model_model_23_cv3_2_1_0_conv_bias_to_fp16"), val = tensor<fp16, [64]>(BLOBFILE(path = tensor<string, []>("@model_path/weights/weight.bin"), offset = tensor<uint64, []>(5167168)))];
            tensor<fp16, [1, 64, 20, 20]> input_311_cast_fp16 = conv(bias = model_model_23_cv3_2_1_0_conv_bias_to_fp16, dilations = input_311_dilations_0, groups = input_311_groups_0, pad = input_311_pad_0, pad_type = input_311_pad_type_0, strides = input_311_strides_0, weight = model_model_23_cv3_2_1_0_conv_weight_to_fp16, x = input_309_cast_fp16)[name = tensor<string, []>("input_311_cast_fp16")];
            tensor<fp16, [1, 64, 20, 20]> input_313_cast_fp16 = silu(x = input_311_cast_fp16)[name = tensor<string, []>("input_313_cast_fp16")];
            tensor<string, []> input_315_pad_type_0 = const()[name = tensor<string, []>("input_315_pad_type_0"), val = tensor<string, []>("valid")];
            tensor<int32, [2]> input_315_strides_0 = const()[name = tensor<string, []>("input_315_strides_0"), val = tensor<int32, [2]>([1, 1])];
            tensor<int32, [4]> input_315_pad_0 = const()[name = tensor<string, []>("input_315_pad_0"), val = tensor<int32, [4]>([0, 0, 0, 0])];
            tensor<int32, [2]> input_315_dilations_0 = const()[name = tensor<string, []>("input_315_dilations_0"), val = tensor<int32, [2]>([1, 1])];
            tensor<int32, []> input_315_groups_0 = const()[name = tensor<string, []>("input_315_groups_0"), val = tensor<int32, []>(1)];
            tensor<fp16, [64, 64, 1, 1]> model_model_23_cv3_2_1_1_conv_weight_to_fp16 = const()[name = tensor<string, []>("model_model_23_cv3_2_1_1_conv_weight_to_fp16"), val = tensor<fp16, [64, 64, 1, 1]>(BLOBFILE(path = tensor<string, []>("@model_path/weights/weight.bin"), offset = tensor<uint64, []>(5167360)))];
            tensor<fp16, [64]> model_model_23_cv3_2_1_1_conv_bias_to_fp16 = const()[name = tensor<string, []>("model_model_23_cv3_2_1_1_conv_bias_to_fp16"), val = tensor<fp16, [64]>(BLOBFILE(path = tensor<string, []>("@model_path/weights/weight.bin"), offset = tensor<uint64, []>(5175616)))];
            tensor<fp16, [1, 64, 20, 20]> input_315_cast_fp16 = conv(bias = model_model_23_cv3_2_1_1_conv_bias_to_fp16, dilations = input_315_dilations_0, groups = input_315_groups_0, pad = input_315_pad_0, pad_type = input_315_pad_type_0, strides = input_315_strides_0, weight = model_model_23_cv3_2_1_1_conv_weight_to_fp16, x = input_313_cast_fp16)[name = tensor<string, []>("input_315_cast_fp16")];
            tensor<fp16, [1, 64, 20, 20]> input_317_cast_fp16 = silu(x = input_315_cast_fp16)[name = tensor<string, []>("input_317_cast_fp16")];
            tensor<string, []> var_1086_pad_type_0 = const()[name = tensor<string, []>("op_1086_pad_type_0"), val = tensor<string, []>("valid")];
            tensor<int32, [2]> var_1086_strides_0 = const()[name = tensor<string, []>("op_1086_strides_0"), val = tensor<int32, [2]>([1, 1])];
            tensor<int32, [4]> var_1086_pad_0 = const()[name = tensor<string, []>("op_1086_pad_0"), val = tensor<int32, [4]>([0, 0, 0, 0])];
            tensor<int32, [2]> var_1086_dilations_0 = const()[name = tensor<string, []>("op_1086_dilations_0"), val = tensor<int32, [2]>([1, 1])];
            tensor<int32, []> var_1086_groups_0 = const()[name = tensor<string, []>("op_1086_groups_0"), val = tensor<int32, []>(1)];
            tensor<fp16, [2, 64, 1, 1]> model_model_23_cv3_2_2_weight_to_fp16 = const()[name = tensor<string, []>("model_model_23_cv3_2_2_weight_to_fp16"), val = tensor<fp16, [2, 64, 1, 1]>(BLOBFILE(path = tensor<string, []>("@model_path/weights/weight.bin"), offset = tensor<uint64, []>(5175808)))];
            tensor<fp16, [2]> model_model_23_cv3_2_2_bias_to_fp16 = const()[name = tensor<string, []>("model_model_23_cv3_2_2_bias_to_fp16"), val = tensor<fp16, [2]>([-0x1.4ccp+2, -0x1.4dp+2])];
            tensor<fp16, [1, 2, 20, 20]> var_1086_cast_fp16 = conv(bias = model_model_23_cv3_2_2_bias_to_fp16, dilations = var_1086_dilations_0, groups = var_1086_groups_0, pad = var_1086_pad_0, pad_type = var_1086_pad_type_0, strides = var_1086_strides_0, weight = model_model_23_cv3_2_2_weight_to_fp16, x = input_317_cast_fp16)[name = tensor<string, []>("op_1086_cast_fp16")];
            tensor<bool, []> xi_interleave_0 = const()[name = tensor<string, []>("xi_interleave_0"), val = tensor<bool, []>(false)];
            tensor<fp16, [1, 66, 20, 20]> xi_cast_fp16 = concat(axis = var_21, interleave = xi_interleave_0, values = (var_1036_cast_fp16, var_1086_cast_fp16))[name = tensor<string, []>("xi_cast_fp16")];
            tensor<int32, [3]> var_1090 = const()[name = tensor<string, []>("op_1090"), val = tensor<int32, [3]>([1, 66, -1])];
            tensor<fp16, [1, 66, 6400]> var_1091_cast_fp16 = reshape(shape = var_1090, x = xi_1_cast_fp16)[name = tensor<string, []>("op_1091_cast_fp16")];
            tensor<int32, [3]> var_1092 = const()[name = tensor<string, []>("op_1092"), val = tensor<int32, [3]>([1, 66, -1])];
            tensor<fp16, [1, 66, 1600]> var_1093_cast_fp16 = reshape(shape = var_1092, x = xi_3_cast_fp16)[name = tensor<string, []>("op_1093_cast_fp16")];
            tensor<int32, [3]> var_1094 = const()[name = tensor<string, []>("op_1094"), val = tensor<int32, [3]>([1, 66, -1])];
            tensor<fp16, [1, 66, 400]> var_1095_cast_fp16 = reshape(shape = var_1094, x = xi_cast_fp16)[name = tensor<string, []>("op_1095_cast_fp16")];
            tensor<bool, []> var_1097_interleave_0 = const()[name = tensor<string, []>("op_1097_interleave_0"), val = tensor<bool, []>(false)];
            tensor<fp16, [1, 66, 8400]> var_1097_cast_fp16 = concat(axis = var_22, interleave = var_1097_interleave_0, values = (var_1091_cast_fp16, var_1093_cast_fp16, var_1095_cast_fp16))[name = tensor<string, []>("op_1097_cast_fp16")];
            tensor<int32, [2]> var_1098 = const()[name = tensor<string, []>("op_1098"), val = tensor<int32, [2]>([64, 2])];
            tensor<int32, []> var_1099_axis_0 = const()[name = tensor<string, []>("op_1099_axis_0"), val = tensor<int32, []>(1)];
            tensor<fp16, [1, 64, 8400]> var_1099_cast_fp16_0, tensor<fp16, [1, 2, 8400]> var_1099_cast_fp16_1 = split(axis = var_1099_axis_0, split_sizes = var_1098, x = var_1097_cast_fp16)[name = tensor<string, []>("op_1099_cast_fp16")];
            tensor<int32, [4]> var_1105 = const()[name = tensor<string, []>("op_1105"), val = tensor<int32, [4]>([1, 4, 16, 8400])];
            tensor<fp16, [1, 4, 16, 8400]> var_1106_cast_fp16 = reshape(shape = var_1105, x = var_1099_cast_fp16_0)[name = tensor<string, []>("op_1106_cast_fp16")];
            tensor<int32, [4]> var_1107_perm_0 = const()[name = tensor<string, []>("op_1107_perm_0"), val = tensor<int32, [4]>([0, 2, 1, 3])];
            tensor<fp16, [1, 16, 4, 8400]> var_1107_cast_fp16 = transpose(perm = var_1107_perm_0, x = var_1106_cast_fp16)[name = tensor<string, []>("transpose_1")];
            tensor<fp16, [1, 16, 4, 8400]> input_319_cast_fp16 = softmax(axis = var_21, x = var_1107_cast_fp16)[name = tensor<string, []>("input_319_cast_fp16")];
            tensor<string, []> var_1114_pad_type_0 = const()[name = tensor<string, []>("op_1114_pad_type_0"), val = tensor<string, []>("valid")];
            tensor<int32, [2]> var_1114_strides_0 = const()[name = tensor<string, []>("op_1114_strides_0"), val = tensor<int32, [2]>([1, 1])];
            tensor<int32, [4]> var_1114_pad_0 = const()[name = tensor<string, []>("op_1114_pad_0"), val = tensor<int32, [4]>([0, 0, 0, 0])];
            tensor<int32, [2]> var_1114_dilations_0 = const()[name = tensor<string, []>("op_1114_dilations_0"), val = tensor<int32, [2]>([1, 1])];
            tensor<int32, []> var_1114_groups_0 = const()[name = tensor<string, []>("op_1114_groups_0"), val = tensor<int32, []>(1)];
            tensor<fp16, [1, 16, 1, 1]> model_model_23_dfl_conv_weight_to_fp16 = const()[name = tensor<string, []>("model_model_23_dfl_conv_weight_to_fp16"), val = tensor<fp16, [1, 16, 1, 1]>(BLOBFILE(path = tensor<string, []>("@model_path/weights/weight.bin"), offset = tensor<uint64, []>(5176128)))];
            tensor<fp16, [1, 1, 4, 8400]> var_1114_cast_fp16 = conv(dilations = var_1114_dilations_0, groups = var_1114_groups_0, pad = var_1114_pad_0, pad_type = var_1114_pad_type_0, strides = var_1114_strides_0, weight = model_model_23_dfl_conv_weight_to_fp16, x = input_319_cast_fp16)[name = tensor<string, []>("op_1114_cast_fp16")];
            tensor<int32, [3]> var_1115 = const()[name = tensor<string, []>("op_1115"), val = tensor<int32, [3]>([1, 4, 8400])];
            tensor<fp16, [1, 4, 8400]> distance_cast_fp16 = reshape(shape = var_1115, x = var_1114_cast_fp16)[name = tensor<string, []>("distance_cast_fp16")];
            tensor<int32, [2]> var_1118_split_sizes_0 = const()[name = tensor<string, []>("op_1118_split_sizes_0"), val = tensor<int32, [2]>([2, 2])];
            tensor<int32, []> var_1118_axis_0 = const()[name = tensor<string, []>("op_1118_axis_0"), val = tensor<int32, []>(1)];
            tensor<fp16, [1, 2, 8400]> var_1118_cast_fp16_0, tensor<fp16, [1, 2, 8400]> var_1118_cast_fp16_1 = split(axis = var_1118_axis_0, split_sizes = var_1118_split_sizes_0, x = distance_cast_fp16)[name = tensor<string, []>("op_1118_cast_fp16")];
            tensor<fp16, [1, 2, 8400]> anchor_points_to_fp16 = const()[name = tensor<string, []>("anchor_points_to_fp16"), val = tensor<fp16, [1, 2, 8400]>(BLOBFILE(path = tensor<string, []>("@model_path/weights/weight.bin"), offset = tensor<uint64, []>(5176256)))];
            tensor<fp16, [1, 2, 8400]> x1y1_cast_fp16 = sub(x = anchor_points_to_fp16, y = var_1118_cast_fp16_0)[name = tensor<string, []>("x1y1_cast_fp16")];
            tensor<fp16, [1, 2, 8400]> x2y2_cast_fp16 = add(x = anchor_points_to_fp16, y = var_1118_cast_fp16_1)[name = tensor<string, []>("x2y2_cast_fp16")];
            tensor<fp16, [1, 2, 8400]> var_1122_cast_fp16 = add(x = x1y1_cast_fp16, y = x2y2_cast_fp16)[name = tensor<string, []>("op_1122_cast_fp16")];
            tensor<fp16, []> _inversed_c_xy_y_0_to_fp16 = const()[name = tensor<string, []>("_inversed_c_xy_y_0_to_fp16"), val = tensor<fp16, []>(0x1p-1)];
            tensor<fp16, [1, 2, 8400]> _inversed_c_xy_cast_fp16 = mul(x = var_1122_cast_fp16, y = _inversed_c_xy_y_0_to_fp16)[name = tensor<string, []>("_inversed_c_xy_cast_fp16")];
            tensor<fp16, [1, 2, 8400]> wh_cast_fp16 = sub(x = x2y2_cast_fp16, y = x1y1_cast_fp16)[name = tensor<string, []>("wh_cast_fp16")];
            tensor<bool, []> var_1127_interleave_0 = const()[name = tensor<string, []>("op_1127_interleave_0"), val = tensor<bool, []>(false)];
            tensor<fp16, [1, 4, 8400]> var_1127_cast_fp16 = concat(axis = var_21, interleave = var_1127_interleave_0, values = (_inversed_c_xy_cast_fp16, wh_cast_fp16))[name = tensor<string, []>("op_1127_cast_fp16")];
            tensor<fp16, [1, 8400]> var_7_to_fp16 = const()[name = tensor<string, []>("op_7_to_fp16"), val = tensor<fp16, [1, 8400]>(BLOBFILE(path = tensor<string, []>("@model_path/weights/weight.bin"), offset = tensor<uint64, []>(5209920)))];
            tensor<fp16, [1, 4, 8400]> dbox_cast_fp16 = mul(x = var_1127_cast_fp16, y = var_7_to_fp16)[name = tensor<string, []>("dbox_cast_fp16")];
            tensor<fp16, [1, 2, 8400]> var_1129_cast_fp16 = sigmoid(x = var_1099_cast_fp16_1)[name = tensor<string, []>("op_1129_cast_fp16")];
            tensor<bool, []> var_1131_interleave_0 = const()[name = tensor<string, []>("op_1131_interleave_0"), val = tensor<bool, []>(false)];
            tensor<fp16, [1, 6, 8400]> var_1131_cast_fp16 = concat(axis = var_21, interleave = var_1131_interleave_0, values = (dbox_cast_fp16, var_1129_cast_fp16))[name = tensor<string, []>("op_1131_cast_fp16")];
            tensor<int32, [3]> var_1134_begin_0 = const()[name = tensor<string, []>("op_1134_begin_0"), val = tensor<int32, [3]>([0, 0, 0])];
            tensor<int32, [3]> var_1134_end_0 = const()[name = tensor<string, []>("op_1134_end_0"), val = tensor<int32, [3]>([1, 6, 8400])];
            tensor<bool, [3]> var_1134_end_mask_0 = const()[name = tensor<string, []>("op_1134_end_mask_0"), val = tensor<bool, [3]>([false, true, true])];
            tensor<bool, [3]> var_1134_squeeze_mask_0 = const()[name = tensor<string, []>("op_1134_squeeze_mask_0"), val = tensor<bool, [3]>([true, false, false])];
            tensor<fp16, [6, 8400]> var_1134_cast_fp16 = slice_by_index(begin = var_1134_begin_0, end = var_1134_end_0, end_mask = var_1134_end_mask_0, squeeze_mask = var_1134_squeeze_mask_0, x = var_1131_cast_fp16)[name = tensor<string, []>("op_1134_cast_fp16")];
            tensor<int32, [2]> var_1137_perm_0 = const()[name = tensor<string, []>("op_1137_perm_0"), val = tensor<int32, [2]>([1, 0])];
            tensor<int32, [2]> var_1140 = const()[name = tensor<string, []>("op_1140"), val = tensor<int32, [2]>([4, 2])];
            tensor<int32, []> var_1142_axis_0 = const()[name = tensor<string, []>("op_1142_axis_0"), val = tensor<int32, []>(1)];
            tensor<fp16, [8400, 6]> var_1137_cast_fp16 = transpose(perm = var_1137_perm_0, x = var_1134_cast_fp16)[name = tensor<string, []>("transpose_0")];
            tensor<fp16, [8400, 4]> var_1142_cast_fp16_0, tensor<fp16, [8400, 2]> var_1142_cast_fp16_1 = split(axis = var_1142_axis_0, split_sizes = var_1140, x = var_1137_cast_fp16)[name = tensor<string, []>("op_1142_cast_fp16")];
            tensor<int32, [4]> var_1152_pad_0 = const()[name = tensor<string, []>("op_1152_pad_0"), val = tensor<int32, [4]>([0, 0, 0, 78])];
            tensor<string, []> var_1152_mode_0 = const()[name = tensor<string, []>("op_1152_mode_0"), val = tensor<string, []>("constant")];
            tensor<fp16, []> const_7_to_fp16 = const()[name = tensor<string, []>("const_7_to_fp16"), val = tensor<fp16, []>(0x0p+0)];
            tensor<fp16, [8400, 80]> var_1152_cast_fp16 = pad(constant_val = const_7_to_fp16, mode = var_1152_mode_0, pad = var_1152_pad_0, x = var_1142_cast_fp16_1)[name = tensor<string, []>("op_1152_cast_fp16")];
            tensor<string, []> var_1152_cast_fp16_to_fp32_dtype_0 = const()[name = tensor<string, []>("op_1152_cast_fp16_to_fp32_dtype_0"), val = tensor<string, []>("fp32")];
            tensor<fp16, []> var_1153_to_fp16 = const()[name = tensor<string, []>("op_1153_to_fp16"), val = tensor<fp16, []>(0x1.998p-10)];
            tensor<fp16, [8400, 4]> var_1154_cast_fp16 = mul(x = var_1142_cast_fp16_0, y = var_1153_to_fp16)[name = tensor<string, []>("op_1154_cast_fp16")];
            tensor<string, []> var_1154_cast_fp16_to_fp32_dtype_0 = const()[name = tensor<string, []>("op_1154_cast_fp16_to_fp32_dtype_0"), val = tensor<string, []>("fp32")];
            tensor<fp32, [8400, 4]> var_1154 = cast(dtype = var_1154_cast_fp16_to_fp32_dtype_0, x = var_1154_cast_fp16)[name = tensor<string, []>("cast_10")];
            tensor<fp32, [8400, 80]> var_1152 = cast(dtype = var_1152_cast_fp16_to_fp32_dtype_0, x = var_1152_cast_fp16)[name = tensor<string, []>("cast_11")];
        } -> (var_1152, var_1154);
}